models/reacher/benchmark/checkpoint_target_nes_layer_0.pth (torch_old, 317420 bytes, 3 tensors)

weight f8 [400, 33]
00000000: e068 d36b 431f f0bf 834f 789b bd67 c23f
00000010: b285 0af6 a8f8 e83f bca5 cdab cb49 c8bf
00000020: e840 9bd1 71d6 ebbf 906b 7ea2 7a7b ae3f
00000030: 2681 7229 a9a8 ea3f c6ab 57a0 7f6a f1bf
00000040: 39f2 624e 1d4a d53f 874a ebc4 1fdf d3bf
00000050: e699 af74 b033 a93f a386 0a4e 0bf2 c5bf
00000060: df81 165b 8c05 e53f 9a2e 1a3b bef6 e8bf
00000070: 5398 78bf d8ba eb3f 3c13 9bad 5a17 d1bf
00000080: 71c6 eece 54c8 a3bf 07dc 1562 d231 f0bf
00000090: 821f 6ab9 e2ec da3f 7d6e 5f8b 66fc cabf
000000a0: 2fc8 d743 1df5 b4bf aa1e 5360 ef99 c93f
000000b0: 295d 2815 38e5 dcbf a291 e012 bfae fdbf
000000c0: 0d66 3cd1 358e e73f 90de 921d 07a6 96bf
000000d0: 9de1 7c49 92f4 d3bf 8e0d 8422 51be f73f
000000e0: 868b 6edc a1ed f3bf ce50 d432 873d bc3f
000000f0: 28fc 2c33 d45f f8bf 980e d87e 99e6 94bf
00000100: ae67 ccf2 dba2 f1bf d8ef bf6a 2d65 cdbf
00000110: 7ea9 9c10 15bd f0bf 774a 0a99 7850 df3f
00000120: a2b5 c1e7 d24d e43f fbcf dbd5 a4f7 d2bf
00000130: a325 da71 7c9b e3bf 4480 14e7 4816 e3bf
00000140: 9fcd 2b16 165f b0bf d43e 0a8c 6b88 f1bf
00000150: 2f6c 6001 029a 943f 03ca 0cac a0f3 e2bf
00000160: e8e3 dbd5 0977 dcbf f22c 96f3 a7bf e63f
00000170: 22c3 90dd d9e6 f3bf c8d0 71ee 7ae7 f23f
00000180: a2e9 05fe 0671 f7bf 2ad8 2c32 7114 d13f
00000190: 65e8 b463 3f9e 8d3f fb93 2114 2caf e8bf
000001a0: 43e4 dfea b7ce c5bf 5a29 716e 5104 e53f
000001b0: 7d96 f5e1 a30a c6bf 67fb f2f8 1e87 e13f
000001c0: 1959 6b64 3ff7 f3bf 6e7d de69 4712 ef3f
000001d0: 2bde eb94 22cb fdbf d511 b822 a8ff f83f
000001e0: 9ede e94d 546e 813f fa2d cb51 77ee f53f
000001f0: ac46 a087 78ea aabf e764 5356 9df5 abbf
00000200: 8a2e fe45 a0ce a4bf 5379 28db 6d17 e33f
00000210: 8a52 a987 7bae e5bf 6b26 4105 b9d7 f0bf
00000220: abd5 3a00 15d5 dbbf 1d0e ec55 ebb5 e7bf
00000230: 44a7 ed86 9d32 d4bf 2e4f 721a 5307 d9bf
00000240: 2608 1022 4cea cebf 0ce8 627e d70c d53f
00000250: fcaf 9770 a353 813f 6f1a cf7a 2585 d3bf
00000260: b7ff f1b5 a360 c2bf 26d6 67ab e01b a5bf
00000270: 1f31 ee29 6d8b 933f 680d 8ebb 45f9 e23f
00000280: 5063 6d0c 16a8 da3f f33d c8ac 6fcc efbf
00000290: 58ce e47e 7028 bbbf ea63 cb1b ba4f f1bf
000002a0: 860c 4b21 4fa8 d53f 8534 ba9a 5613 dcbf
000002b0: aa02 9436 b9a5 dc3f 46b9 ae28 219e dd3f
000002c0: 23f0 de7f b1e2 b33f a3ae 1ccf 14e9 a4bf
000002d0: d867 e763 b55d f43f 68ab 5c7f b1d2 e0bf
000002e0: b9ab 4283 eb5f afbf 7759 cf34 c111 ef3f
000002f0: 3ab6 a192 6855 0240 5e03 1f51 acc2 bc3f
00000300: 06f2 eda0 95a7 eabf f22e df3d 8040 b9bf
00000310: e7c0 e582 b33e e63f 862c b8a4 6a7d ecbf
00000320: 1bf5 2e33 42c3 f13f bbca 0e35 b92c e93f
00000330: 7983 4adf 42c1 d9bf 0361 278f 351e cb3f
00000340: b12b 71cd 10dd e73f cbe5 53ad c62b e83f
00000350: 4ad9 7b36 3c3f bbbf e1eb 0e98 0dd4 a7bf
00000360: 924c 5e34 d22f e7bf 516b 4c89 ab31 e23f
00000370: aadd 3abb 1948 e93f 9a71 2fae 11c7 d9bf
00000380: bd39 d2de 5a09 963f d10b c7c4 169c ecbf
00000390: 5110 89da a94f f6bf 484c 10ae 6d07 f93f
000003a0: c6ba c459 a2bf cfbf bcef 1eb5 993b c63f
000003b0: c6c6 0887 ad83 eebf 8bf1 fbbb 1986 e6bf
000003c0: bd5e 4c65 b680 e3bf b5cf 5081 cc11 ca3f
000003d0: 1927 29d6 1b89 c1bf a6b4 dc5f 93e4 e0bf
000003e0: b649 1583 9746 d23f 5dcb 2d96 7a5a e33f
000003f0: e1b7 d4ae e7d7 0140 65da db10 e1a2 ebbf
00000400: 0d1b c955 2c29 bcbf ae90 82d5 8fa2 02c0
00000410: e07b 6f17 20e1 69bf a301 85a5 5cf6 dabf
00000420: 1140 a9ca 3111 e7bf 134c a96d b9d2 f33f
00000430: a6e9 d0ef 13b9 b6bf 7530 e21a b74f bbbf
00000440: c9a1 fd98 64c1 dc3f ae2b 273b fa00 e93f
00000450: 3aa4 20e5 58a0 9cbf cbb4 94db 8591 e03f
00000460: 1121 19d3 3353 dcbf ac6b da27 1a81 debf
00000470: 94e8 1068 8b64 e83f 0d68 a485 0a21 f33f
00000480: af53 828f ec82 b13f 29b7 b008 4153 e93f
00000490: 1fb1 8d3d 41f1 cf3f 006c d7a3 759c f2bf
000004a0: 478f 38de 05ad e0bf 7c16 488f 69af d73f
000004b0: 1a9a 9f0d 17f4 f4bf 2d7c 5b12 ad71 d73f
000004c0: 70d4 b195 db53 f5bf ae3b c68d 5f76 d7bf
000004d0: b3bd 3af1 1f66 e2bf aa3c f04e c250 f03f
000004e0: 4ce5 d0da d4cf f9bf 7767 d02c 022b d3bf
000004f0: dcc8 6346 2c5b c8bf ace2 6f1a 5e42 ff3f
00000500: 85ad dc70 d2f5 e83f c04e 6a5f fe44 933f
00000510: 7c3a f73e 4e50 00c0 fa3a 06fe b19f b43f
00000520: c624 8ed9 6cca d0bf 3d2d f38e 530a dabf
00000530: 03ce 4ece 6dab f43f 23a7 1fbf 3432 abbf
00000540: 5660 8bea d66f e7bf a709 45f3 433c ddbf
00000550: bbff 0b1d 9dd9 f43f 620a cb84 07c2 c13f
00000560: d781 6744 01db f3bf cdc6 316d 776d 7b3f
00000570: d168 713d 1b06 ebbf 1d30 6d68 deb2 e13f
00000580: a0d0 4434 228f ddbf bbff e14a 8eb1 f9bf
00000590: 73d1 4233 c89e ed3f bbb2 88c9 4fdb f9bf
000005a0: 46d9 1b52 e411 c13f b277 c876 fb6a e13f
000005b0: 99fd 8c85 416d c9bf 4ddf 6149 4751 e6bf
000005c0: 97f3 468e 865b c6bf e4ac 3202 df3d c2bf
000005d0: 26d0 68f6 6334 d13f 9b79 cb13 4a7b e8bf
000005e0: fb16 4364 6f6f d7bf 4921 1d00 148d f4bf
000005f0: 1bde ce52 7193 d73f 6e60 d8f8 2f23 d83f
00000600: 2788 9908 1690 0540 d71b 8bc5 9917 e4bf
00000610: 02fa 28d8 7dca abbf 5ac5 e0f3 a89d 04c0
00000620: 3190 cf8a 7104 b1bf 9e45 520d 4931 e23f
00000630: 8a46 673f 9f8f e13f 5e9e 735c a30b e33f
00000640: 962e 40ad b05f d73f 0b3d 8e19 2bd7 d2bf
00000650: 9204 fe80 69b7 d9bf c621 3742 9282 ee3f
00000660: 93b4 cf56 64b1 cb3f 5011 cd21 060c bc3f
00000670: e0a8 7559 a0e8 d3bf 235f aef4 f3fb ebbf
00000680: 313f 6af9 02fd a7bf 0acd f204 6488 c5bf
00000690: 4588 7e19 72e6 e8bf 1df1 48e2 f637 e03f
000006a0: bc76 0c46 6db6 cdbf 0459 062c a013 f0bf
000006b0: 5ce7 09fb da2b f13f 925d 224a 4e7d a4bf
000006c0: da6a 1460 5525 c0bf af4b 83be b063 f1bf
000006d0: 8986 db5c e91e a13f 021c 2187 b87a e6bf
000006e0: ce62 5e16 9453 f4bf 67bd 4da2 a14d d23f
000006f0: 6fb1 13d6 e528 e43f 62d7 4196 8787 fabf
00000700: 9518 7145 6574 e63f dec2 7ca9 134a 0340
00000710: 8201 f0c7 3afd d7bf 487b 1cfd 0948 a6bf
00000720: 37f0 3aed 073d 02c0 ca99 8d88 b9f3 b3bf
00000730: 1e0e 65d9 f9f1 ecbf 2e1f b6af 20ea e2bf
00000740: a337 1dc7 6b28 b7bf 87d1 85db d2ec e73f
00000750: 76df 9e8c 38fe f1bf 8fb9 e9d6 38d7 e5bf
00000760: 4fd2 493e 1487 f73f f839 5200 2db0 c1bf
00000770: 5f7c 0c6e c9d1 f0bf 0d57 8a89 cc40 b1bf
00000780: 2a57 4310 c638 e6bf 1d8a 6669 31bc c33f
00000790: 9ecd 1c31 99fe dc3f 1e69 2f33 5a86 7f3f
000007a0: d584 5d5a 8807 ec3f 2a25 72a1 041b d5bf
000007b0: e173 6acd f695 e6bf a130 a584 7b3d e23f
000007c0: c1d0 11b1 3f4d e1bf cf0a bd45 c636 e3bf
000007d0: 989b 5e02 592b efbf 19b2 f448 6401 dbbf
000007e0: a3be eed9 8a5a babf b8c4 cba3 4b0f b83f
000007f0: faea ecf6 337e f93f aefb 5ac0 77e7 03c0
-1.0076326572366767 0.14379091349894332 0.7803540044298443 -0.18975206269105438 -0.8699273198963313 0.05953582032744642 0.8330884751813172 -1.0885006202104122
0.3326485887044189 -0.3104934142149109 0.04922248291386548 -0.17144910154916201 0.6569272784291192 -0.7801200060216218 0.8665584315938396 -0.2670504279488346
-0.038637781391469235 -1.0121635276279919 0.42070835215462676 -0.21082765393554218 -0.08186514765091667 0.20001022532800522 -0.4514904219262968 -1.8551626908675662
0.7361096464766789 -0.022117720775638505 -0.3118024556784123 1.4839640949511224 -1.2455156908624487 0.11031384459448931 -1.523395728974501 -0.02041091763204736
-1.1022605404200294 -0.2296501895178824 -1.0461626671700226 0.4892865652592841 0.6344999815461743 -0.296364983412104 -0.6127302383112475 -0.5964703095705848
-0.0639509014252355 -1.0958056898415878 0.020118743261360258 -0.5922397003508312 -0.4447655285326264 0.7108955152083622 -1.243860116472384 1.1815137209169269
-1.4650945589806743 0.26687269115371015 0.014461989622408031 -0.7713833230196764 -0.17037104576573556 0.6567771107741394 -0.1721997121159581 0.5477442610061701
-1.247863189948083 0.9709813182598006 -1.8620935265770509 1.5624162059985924 0.008511217715962357 1.3707192606988188 -0.052570120387952585 -0.054608265674412064
-0.040638931793265234 0.5966100006515184 -0.6775491380345369 -1.052666683698045 -0.4348804952854503 -0.7409569433370425 -0.3155893151912219 -0.39107205946605716
-0.24152518904890136 0.32890879957597075 0.008460308908034612 -0.3050016116434681 -0.1435742033390832 -0.04122831432679801 0.019086557087164665 0.5929287589246259
0.41650916303256214 -0.9937055945064784 -0.10608580682747382 -1.0819645963404079 0.33839777232442037 -0.43868031606763963 0.44761495904826154 0.46277646038915454
0.07767781612250295 -0.040840769083243765 1.2728780653474043 -0.5257194030321957 -0.061278686306955384 0.9709173232502469 2.291703362999013 0.1123454759645148
-0.8329570906785768 -0.09864045630018461 0.6951539570418647 -0.8903096406151156 1.1101705550530088 0.7867094074520858 -0.4024207287384836 0.21185941209729017
0.7457355511227118 0.7553437600428706 -0.1064336426751186 -0.046539711772730426 -0.7245875380343867 0.5685632402049611 0.7900513321719036 -0.4027752114323221
0.021520061349798548 -0.8940538256941811 -1.3944490944422976 1.564313583313167 -0.24803571112848583 0.17369386047164237 -0.9535739552868214 -0.7038696929517284
-0.6094619730456184 0.20366817774049442 -0.13699672658031473 -0.52790230486939 0.28555858422364666 0.6047947819882712 2.23042236887612 -0.86363271038756
-0.11000325292944187 -2.3293759041281055 -0.0031591059482560663 -0.4212867370988766 -0.7208489378190298 1.2389463695187757 -0.08876156430134205 -0.10668510824524609
0.44930376949789924 0.7813693194706184 -0.027955426201661228 0.5177640236558089 -0.4425782739167668 -0.47662977115549654 0.7622735054531113 1.1955666752242025
0.06840399268760565 0.7914128465397187 0.24955001359502035 -1.163198127752139 -0.52112096216704 0.37008131973593783 -1.3095922977605654 0.36631323616706163
-1.332973084206312 -0.3665999302401656 -0.5749664031517824 1.019716556885934 -1.6132401034831956 -0.2995000302922714 -0.1902823775959125 1.9537030251214373
0.7800075725876218 0.018817877362905078 -2.0392117423246514 0.08056175662771273 -0.26235505338315723 -0.40688027343704275 1.2918527659320496 -0.05311741669704719
-0.7324022847124165 -0.45680330998234314 1.303128350700702 0.1387338064578954 -1.2409680053752845 0.006696192274022028 -0.8444954109247879 0.5530845679836635
-0.46186118225456063 -1.6058485913381293 0.9256325722877093 -1.6160428879185662 0.13335851678102467 0.5443093605024301 -0.19864672680885745 -0.6974216874359428
-0.17466813990713767 -0.14251315696069533 0.2688226610509922 -0.7650499712579405 -0.3661764601823589 -1.2844429020352257 0.36837418638921954 0.37714766789714005
2.6953545257429314 -0.6278809412259488 -0.054279263149954474 -2.576982407853092 -0.06647405280051612 0.5685162792380429 0.5487819898937272 0.595170670098877
0.36521546286596995 -0.2943828343931762 -0.4018195876779568 0.9534388821858151 0.21635107268176465 0.10955847096653781 -0.31107338653840877 -0.8745059756210803
-0.04685220045678163 -0.16822481385825255 -0.7781305787978076 0.5068315906169435 -0.23212972565027268 -1.0047914237707696 1.07320688306796 -0.04001850752791393
-0.1261393279208594 -1.0868384782704472 0.03343896158709209 -0.7024805678601072 -1.2704048990037111 0.2859882435795584 0.6299924069585766 -1.6580882901593772
0.7017084461483757 2.411170314903173 -0.3748309090151666 -0.04351836409317983 -2.2798002751933626 -0.0779376943952236 -0.9045380826941629 -0.5910800392020741
-0.09046052561936206 0.7476591384461678 -1.1245656483642654 -0.6825222203749933 1.470478289903571 -0.1381889583175988 -1.0512174891262231 -0.0673950038711519
-0.6944303815496131 0.15418069502364143 0.4530394534696941 0.007696487754367957 0.8759195103595184 -0.32977405325125864 -0.7058061611202185 0.5700051871040338
-0.5406797846212826 -0.6004363405303027 -0.9740414663582326 -0.4219599449595833 -0.1029440671979907 0.09398339032101688 1.593311276009159 -2.4880213763967367

sigma f8 [400, 33]
00000000: 5dd9 1975 1b5c acbf ce86 48c4 a8b3 a8bf
00000010: 56ee c08d 06a7 bb3f 4913 42aa 73f1 93bf
00000020: f614 1ca0 c709 a73f 4b79 1c3f 0d17 cf3f
00000030: 5dbe 84ee a572 b2bf b02e ec8f 0acb a73f
00000040: 2cfe 6910 f72c c7bf 0185 894e 35e5 873f
00000050: e623 975a db95 b6bf ec9e 0f85 9d80 b03f
00000060: d8a3 ba78 be77 9dbf cdad af71 7d3d 9a3f
00000070: 031c 3c00 4ac6 d03f 01d9 d218 5177 a03f
00000080: 9ebe 1e58 458d 9dbf 89f4 1059 8510 b23f
00000090: f6f6 7cd3 bf1d bcbf 2b97 333f 46ef aebf
000000a0: 66c0 88ba 013d 9bbf c880 d700 8546 a33f
000000b0: 6d11 07f9 706e b5bf 7784 db7e 7fd0 913f
000000c0: c09f 5fcc a414 c23f 388a 3de1 ba3c a53f
000000d0: a515 2408 8bcb ae3f db01 906e bdf7 b13f
000000e0: cbcd e17c 8823 74bf 9cc4 20b0 7268 913f
000000f0: a8f0 ce92 29c5 b5bf 9cc4 20b0 7268 913f
00000100: f29d f86c 6087 7b3f 6d11 dad0 4cee 803f
00000110: d9c0 ee01 5e47 9cbf 6792 db0f f8ba 96bf
00000120: cdd0 6d53 e95d 923f 1d1c fa09 44c5 8cbf
00000130: 5e61 8ea6 2ade a3bf 6851 24b0 dacd a7bf
00000140: d75f 5334 cdf7 913f 47df 40d8 01bc bb3f
00000150: d5f0 0e4c fc77 a93f 10ba b6bf 2966 a03f
00000160: b0fc ff06 2a6f b5bf ddbf 30b4 7681 a53f
00000170: 483f b941 d486 b33f bbb9 cfe0 af7a d13f
00000180: 7109 a291 f5c1 b53f dcac a8d4 b023 afbf
00000190: d63f 7044 0e5d b2bf 967b 555d 219d b6bf
000001a0: f414 6d90 fc47 9dbf 5d18 d7e9 07d5 ac3f
000001b0: dada 08d6 13cf a8bf 6069 277f 5c05 b5bf
000001c0: 7b06 e99a b9dc bf3f 97ba 4016 3bbc ba3f
000001d0: dbe5 1991 4495 c6bf a054 443c a474 b33f
000001e0: 92f3 dcc2 cd3c adbf 24bc 37a7 f076 9dbf
000001f0: 9cc4 20b0 7268 913f 5f96 4896 6e69 df3f
00000200: 9cc4 20b0 7268 913f 06a8 32ce f641 803f
00000210: 8f6c 77c5 8d8c a9bf 8e92 cf86 28e0 a93f
00000220: dade ef42 5e7a c1bf 524f 784a 0341 a13f
00000230: 990a 8cf4 9f08 aabf 1cfe 7b70 008d b3bf
00000240: 0418 d459 e6f1 933f fee6 e03b bad5 83bf
00000250: d117 ff64 be19 b43f cc02 1d97 f051 a03f
00000260: aff7 a190 121b 5e3f b04d e850 075a c2bf
00000270: 0183 a58a 74a9 ab3f b06f fa3a bb27 453f
00000280: 2103 072e 6906 c33f a17d 9a20 3199 a4bf
00000290: b763 c693 b8c5 c23f b518 0885 c6b4 c1bf
000002a0: b333 8733 962a c3bf dda5 ae53 f39a 8cbf
000002b0: 50c8 49d5 82de b33f 51e6 9980 35a6 bcbf
000002c0: a53c 8233 588b b3bf 1797 409a 4c4d aebf
000002d0: 948b 7cc7 b545 c63f 14c5 c06e 478f a93f
000002e0: f0d9 8464 cd6f b3bf 5312 35d5 4020 c73f
000002f0: cdff 3c3b 1877 afbf 9cc4 20b0 7268 913f
00000300: 09d5 63cd f8e1 d73f 9cc4 20b0 7268 913f
00000310: 18ba 8a86 7f64 9ebf 6785 2e5d e086 ab3f
00000320: 4555 d7ba 258c c83f 4790 3e93 3b2e c23f
00000330: faf9 ef8a d1c8 ba3f 1a33 bd2f e0c5 9abf
00000340: e4c7 b7e2 e1f4 a03f 332b e201 62bf acbf
00000350: c9cc 07d2 97ee 963f de47 cc4f 52e1 54bf
00000360: be85 8735 b7f0 d3bf f9b3 82a8 4b24 c6bf
00000370: be24 8af5 86ad c0bf 6d1d 91e6 f30b cdbf
00000380: 7e40 514c e28d a33f 4d9d cff4 264e c6bf
00000390: 571d ad1c cbeb b83f f686 4275 ca45 8f3f
000003a0: b4b8 0e53 7e4e c53f a8a6 21ac 907e b9bf
000003b0: b993 d3f9 33b1 933f b781 a49f d610 a1bf
000003c0: a065 670e 8ea3 c23f b11b 5ee6 ac3d c6bf
000003d0: 3a3a 9b12 f6e1 cf3f 68fd 7ae0 4939 c23f
000003e0: 84b9 db1e f159 6d3f ae3e 0a54 0e77 bebf
000003f0: 3643 4200 4d03 cb3f 95d1 47c5 a2d5 b7bf
00000400: 9cc4 20b0 7268 913f c588 be60 c48d b4bf
00000410: 9cc4 20b0 7268 913f 1b6f 85f5 29b9 b13f
00000420: 5de4 a284 1a6d b4bf b268 2cb4 4c64 cb3f
00000430: 6bd3 aed3 6382 b13f 98b7 f3e9 8c1f b4bf
00000440: a4e9 ec0c ba83 88bf 1bb0 383c 80ee d43f
00000450: a897 445f 4ef1 c0bf b4e2 5f6f c341 b13f
00000460: cf4b 7e56 716a afbf fe77 1920 cfc4 b43f
00000470: 8a8e 54ba 41cc a63f d7ae 6283 2f77 c43f
00000480: 8ab4 9f7c f117 c5bf 9a0f b0b1 67f3 963f
00000490: 5ea4 b3dc bdd1 abbf b6cd 95ea ef7c 9d3f
000004a0: 1650 8eaf 5699 b0bf a5d3 3ab9 c9c7 9f3f
000004b0: 5472 f4c2 4a35 c73f 9ffd d353 c9f8 b0bf
000004c0: 561b 7c2f f9b4 a23f 5581 0f65 4e53 79bf
000004d0: 5420 4544 6d82 cbbf 0ec9 bbfd 4b35 63bf
000004e0: f405 6b0a 695c a23f 3224 6962 2883 c9bf
000004f0: c3a5 45e0 fbed b13f b9d5 f62d ef77 a9bf
00000500: 5596 9b41 5bd1 a4bf 9cc4 20b0 7268 913f
00000510: 5010 b57c ee46 e63f 9cc4 20b0 7268 913f
00000520: a3ec 21a3 d3a7 8bbf 440c 159b a240 3dbf
00000530: e9c2 65a4 79ff a03f a1f4 03aa 71c8 bdbf
00000540: 9ef7 e5b8 7108 b6bf ed17 d24d a18c b23f
00000550: 438c 4da3 3d2c bebf dfc3 6107 2a4f a23f
00000560: 9017 801a 0c91 c43f a3e0 fed7 0904 b53f
00000570: e3f4 492c 16dc ad3f eb07 5248 08d2 bb3f
00000580: 1a4b b4a2 e4af d23f 22cb 8e51 b457 b23f
00000590: 7335 9aa6 c1ce 993f 2bb9 89e7 297e d3bf
000005a0: b4fe 2789 5d45 a93f 5584 3332 d75a b3bf
000005b0: ec24 3528 b29c c4bf ec5c e17e df9c 42bf
000005c0: 68af 4781 66bf c03f 58a3 eb70 85f4 6c3f
000005d0: b6c2 60c2 c852 9a3f 72fb 8281 84d1 c23f
000005e0: ada0 4359 6561 bfbf 7e74 a795 5f4d ad3f
000005f0: e349 17d1 7da0 a3bf 2a0d 7792 f966 7ebf
00000600: 2db0 2132 0577 c6bf 54c9 199b 6820 bc3f
00000610: 9cc4 20b0 7268 913f 29cc b44c e905 cd3f
00000620: 9cc4 20b0 7268 913f 5b27 33d6 2d22 47bf
00000630: 633a d26b c774 9ebf 47d6 3478 3392 8dbf
00000640: b6a8 83b4 68aa a2bf 9280 4ab1 fc03 953f
00000650: ae42 4114 3a69 c13f a6e2 3f78 5951 d3bf
00000660: 49e7 b390 88c7 a4bf 72a6 42ac 4644 b43f
00000670: e1e9 6032 2394 ac3f 39b8 5883 06fd bb3f
00000680: eb79 b2b4 93d7 c83f 8dc0 a0e6 84c0 7d3f
00000690: 1b7a 7c25 40b0 c13f ffc1 8c5e a92d 84bf
000006a0: f96a e0b1 5722 9d3f c5a9 d594 ada2 a83f
000006b0: c861 ad1d b4aa bc3f dc06 dadd 571a 853f
000006c0: a6bb 8aa6 557e c2bf caae 6c92 4d92 a63f
000006d0: 20ad e495 4349 9c3f 1ff8 c679 2e8d a0bf
000006e0: 84c6 fc76 fd22 babf 718a 52a1 72b0 b3bf
000006f0: 0ac7 4482 e231 babf 326f 7f33 731c b93f
00000700: e6f4 80c3 e4c5 b1bf da01 9c28 0974 d1bf
00000710: 5f72 33bf ba69 b83f 9cc4 20b0 7268 913f
00000720: 15e8 b5f6 fee5 d03f 9cc4 20b0 7268 913f
00000730: b4b6 c33f f32b a93f 62a1 0d70 846d 9dbf
00000740: be63 23ec b771 62bf 0778 a55d 9144 b1bf
00000750: baf0 7cf3 c8de 90bf 55fc 64b2 d27d 723f
00000760: 4e41 0887 f857 ce3f 2b36 6d26 5cf6 b8bf
00000770: 4b7d d25d 416c c0bf 95d2 92ea d028 c8bf
00000780: 3d33 ee5d 630c b43f 085e cbeb b0b0 993f
00000790: afe0 dc9b 8711 c13f dfa3 ec81 badc 9ebf
000007a0: 806e 12fa f828 19bf 84d4 7396 7f7c d03f
000007b0: 478a d96c 191b bb3f ecab ee91 1e04 c43f
000007c0: e2af d8de a5a8 c6bf 6cbb 9283 e7be aabf
000007d0: 73ea 4e2a 9ab2 bc3f 37c0 afcf 67d8 c3bf
000007e0: 1f37 ce3c 4b66 9b3f ba77 a019 9fb8 333f
000007f0: c187 30bd 8aee a13f bb5a 1b11 b6a4 b03f
-0.05539022259192692 -0.04824569126163923 0.10801735840589663 -0.019475753084879064 0.044996488852158054 0.2428909834060938 -0.07206189225393574 0.04647095686786196
-0.18105972577539953 0.011667648753418637 -0.08822413407973748 0.06446251390991237 -0.028777099722592542 0.0256251907957628 0.2621026041310303 0.0321603148271823
-0.028859218123840173 0.07056458878010309 -0.10982893861088514 -0.06041926881316181 -0.026599909792082953 0.037647396424064505 -0.08371645049834849 0.01739691936279938
0.14125499705482802 0.04147895812527164 0.06014666056038757 0.07018646191864468 -0.004916699557827762 0.017 -0.08503970941723316 0.017
0.0067209021213225795 0.008267021297122945 -0.027615994327505475 -0.022197605102422104 0.01793636867246633 -0.014048129610513322 -0.03880437167316829 -0.04649241829079892
0.01754685050840962 0.1083375122988147 0.049743541988819175 0.032029442455826396 -0.0837274806108208 0.04200335454549962 0.07627607922154056 0.2731132216858005
0.08499083333484748 -0.06081917377408683 -0.07173241778241332 -0.08833511856708606 -0.028594919505185737 0.05631279687399691 -0.048454875828999724 -0.08211305717796824
0.12446174652088786 0.10443467419893647 -0.17643029294030907 0.07599855872497807 -0.057104520833014 -0.0287740327893823 0.017 0.49081005741240874
0.017 0.007938316505107689 -0.04990046534995784 0.05053831716194167 -0.13654688137443466 0.03369913372094281 -0.050847052194531624 -0.07637026544761522
0.01947746203679658 -0.00968499655947452 0.07851781812413995 0.031875151106310534 0.0018375092791127303 -0.14337245417173738 0.05402721588575866 0.0006456054888590492
0.1486331438773272 -0.0402312614726228 0.14665896621298 -0.13832932944950974 -0.14973714366933918 -0.013967419616011273 0.07761399943572767 -0.11191114797284142
-0.07634497888124032 -0.059183496312739496 0.17400238266517631 0.04992125727620525 -0.07592471794200839 0.1806717911769221 -0.06145549510119928 0.017
0.3731672292481823 0.017 -0.029680245005403533 0.05376340043518262 0.19177695868590142 0.14203591050784523 0.10462674753214421 -0.026145461000214622
0.03311830418159881 -0.056147635202327704 0.022394535249941314 -0.0012744239640522996 -0.31156711795309977 -0.17298265197805998 -0.1302956293987218 -0.22692726858279447
0.038191863838279425 -0.17426001504575553 0.09734792184928175 0.01526983423565607 0.1664579301408985 -0.09958748056819877 0.01923066341705113 -0.03333159159433612
0.14561629966082723 -0.17375718353670558 0.24908328922761475 0.14237330876310783 0.003582926691584722 -0.11900414993055605 0.21103823197020127 -0.09310357395572162
0.017 -0.08028819429322016 0.017 0.06923162693186351 -0.07978978861037107 0.213998401618317 0.06839584272422676 -0.0786064215824055
-0.011969998855069282 0.3270569408512089 -0.13236407901530112 0.06740972012620255 -0.061358968551892816 0.08112806829146277 0.04452710532703204 0.1598872558146158
-0.1647931917681585 0.022412891597937447 -0.05433457678902508 0.02879690999311687 -0.0648397616008086 0.03103556817105226 0.18131384391098726 -0.0662961797388477
0.03653696732185689 -0.006182962636529806 -0.21491781075951855 -0.0023447498514254156 0.03586128475354747 -0.19931511693201426 0.07003759599105934 -0.04974315105520639
-0.04065976310611733 0.017 0.6961586414040628 0.017 -0.013503697791966756 -0.0004463574396888529 0.03319912082486615 -0.11633978272216662
-0.08606634868735205 0.07245834493559729 -0.11786256062400562 0.035760224724874716 0.16067649167979114 0.08209287188845109 0.05831975260387325 0.10867358937869624
0.2919856633099457 0.07165076247364913 0.025202775758363893 -0.3045754204857924 0.049357340805724986 -0.07560486770263826 -0.16103198016416032 -0.0005680171286809566
0.13084107697010983 0.0035345655700108995 0.025706421722307048 0.14701896976290701 -0.12257989339161908 0.05723093702156577 -0.03833382775669116 -0.007422423258904668
-0.17550721118766557 0.10986951624525904 0.017 0.2267428993742169 0.017 -0.0007059787571048569 -0.029742351489910123 -0.014439012628467597
-0.03645636752647034 0.02052302200411355 0.1360237692738528 -0.3018401789009125 -0.04058481947318044 0.07916681008887297 0.05581769933674586 0.1093296118421855
0.19407888720611707 0.007263678688147601 0.13819124060042118 -0.009852717588359814 0.02845131896183781 0.04811613504246596 0.11197972988646321 0.010304151971698365
-0.14448042518548937 0.04408495342644654 0.027623230003127053 -0.03232712971247075 -0.10209640650716706 -0.07691112936530843 -0.10232368164431818 0.09809036261816287
-0.06942586682358218 -0.2727072617126659 0.09536330383293422 0.017 0.2640378388674674 0.017 0.049163438352349514 -0.02873808797758793
-0.0022514908060710928 -0.06745251213348534 -0.016474857198077265 0.00451452544649474 0.2370596560799733 -0.09750915468358616 -0.12830369073069856 -0.18874560788903652
0.0783140281984744 0.025088085548160804 0.13334746466148803 -0.030138887577013548 -9.597797044807489e-05 0.2575987786543197 0.10588225276436801 0.15637571454621424
-0.1770217264287331 -0.05223773461454226 0.11210025341908096 -0.15504167214339912 0.026757407747530878 0.0003009212902059761 0.03502305564349185 0.06501329343459876

noise f8 [400, 33]
00000000: 0000 0000 0000 0000 0000 0000 0000 0000
00000010: 0000 0000 0000 0000 0000 0000 0000 0000
00000020: 0000 0000 0000 0000 0000 0000 0000 0000
00000030: 0000 0000 0000 0000 0000 0000 0000 0000
00000040: 0000 0000 0000 0000 0000 0000 0000 0000
00000050: 0000 0000 0000 0000 0000 0000 0000 0000
00000060: 0000 0000 0000 0000 0000 0000 0000 0000
00000070: 0000 0000 0000 0000 0000 0000 0000 0000
00000080: 0000 0000 0000 0000 0000 0000 0000 0000
00000090: 0000 0000 0000 0000 0000 0000 0000 0000
000000a0: 0000 0000 0000 0000 0000 0000 0000 0000
000000b0: 0000 0000 0000 0000 0000 0000 0000 0000
000000c0: 0000 0000 0000 0000 0000 0000 0000 0000
000000d0: 0000 0000 0000 0000 0000 0000 0000 0000
000000e0: 0000 0000 0000 0000 0000 0000 0000 0000
000000f0: 0000 0000 0000 0000 0000 0000 0000 0000
00000100: 0000 0000 0000 0000 0000 0000 0000 0000
00000110: 0000 0000 0000 0000 0000 0000 0000 0000
00000120: 0000 0000 0000 0000 0000 0000 0000 0000
00000130: 0000 0000 0000 0000 0000 0000 0000 0000
00000140: 0000 0000 0000 0000 0000 0000 0000 0000
00000150: 0000 0000 0000 0000 0000 0000 0000 0000
00000160: 0000 0000 0000 0000 0000 0000 0000 0000
00000170: 0000 0000 0000 0000 0000 0000 0000 0000
00000180: 0000 0000 0000 0000 0000 0000 0000 0000
00000190: 0000 0000 0000 0000 0000 0000 0000 0000
000001a0: 0000 0000 0000 0000 0000 0000 0000 0000
000001b0: 0000 0000 0000 0000 0000 0000 0000 0000
000001c0: 0000 0000 0000 0000 0000 0000 0000 0000
000001d0: 0000 0000 0000 0000 0000 0000 0000 0000
000001e0: 0000 0000 0000 0000 0000 0000 0000 0000
000001f0: 0000 0000 0000 0000 0000 0000 0000 0000
00000200: 0000 0000 0000 0000 0000 0000 0000 0000
00000210: 0000 0000 0000 0000 0000 0000 0000 0000
00000220: 0000 0000 0000 0000 0000 0000 0000 0000
00000230: 0000 0000 0000 0000 0000 0000 0000 0000
00000240: 0000 0000 0000 0000 0000 0000 0000 0000
00000250: 0000 0000 0000 0000 0000 0000 0000 0000
00000260: 0000 0000 0000 0000 0000 0000 0000 0000
00000270: 0000 0000 0000 0000 0000 0000 0000 0000
00000280: 0000 0000 0000 0000 0000 0000 0000 0000
00000290: 0000 0000 0000 0000 0000 0000 0000 0000
000002a0: 0000 0000 0000 0000 0000 0000 0000 0000
000002b0: 0000 0000 0000 0000 0000 0000 0000 0000
000002c0: 0000 0000 0000 0000 0000 0000 0000 0000
000002d0: 0000 0000 0000 0000 0000 0000 0000 0000
000002e0: 0000 0000 0000 0000 0000 0000 0000 0000
000002f0: 0000 0000 0000 0000 0000 0000 0000 0000
00000300: 0000 0000 0000 0000 0000 0000 0000 0000
00000310: 0000 0000 0000 0000 0000 0000 0000 0000
00000320: 0000 0000 0000 0000 0000 0000 0000 0000
00000330: 0000 0000 0000 0000 0000 0000 0000 0000
00000340: 0000 0000 0000 0000 0000 0000 0000 0000
00000350: 0000 0000 0000 0000 0000 0000 0000 0000
00000360: 0000 0000 0000 0000 0000 0000 0000 0000
00000370: 0000 0000 0000 0000 0000 0000 0000 0000
00000380: 0000 0000 0000 0000 0000 0000 0000 0000
00000390: 0000 0000 0000 0000 0000 0000 0000 0000
000003a0: 0000 0000 0000 0000 0000 0000 0000 0000
000003b0: 0000 0000 0000 0000 0000 0000 0000 0000
000003c0: 0000 0000 0000 0000 0000 0000 0000 0000
000003d0: 0000 0000 0000 0000 0000 0000 0000 0000
000003e0: 0000 0000 0000 0000 0000 0000 0000 0000
000003f0: 0000 0000 0000 0000 0000 0000 0000 0000
00000400: 0000 0000 0000 0000 0000 0000 0000 0000
00000410: 0000 0000 0000 0000 0000 0000 0000 0000
00000420: 0000 0000 0000 0000 0000 0000 0000 0000
00000430: 0000 0000 0000 0000 0000 0000 0000 0000
00000440: 0000 0000 0000 0000 0000 0000 0000 0000
00000450: 0000 0000 0000 0000 0000 0000 0000 0000
00000460: 0000 0000 0000 0000 0000 0000 0000 0000
00000470: 0000 0000 0000 0000 0000 0000 0000 0000
00000480: 0000 0000 0000 0000 0000 0000 0000 0000
00000490: 0000 0000 0000 0000 0000 0000 0000 0000
000004a0: 0000 0000 0000 0000 0000 0000 0000 0000
000004b0: 0000 0000 0000 0000 0000 0000 0000 0000
000004c0: 0000 0000 0000 0000 0000 0000 0000 0000
000004d0: 0000 0000 0000 0000 0000 0000 0000 0000
000004e0: 0000 0000 0000 0000 0000 0000 0000 0000
000004f0: 0000 0000 0000 0000 0000 0000 0000 0000
00000500: 0000 0000 0000 0000 0000 0000 0000 0000
00000510: 0000 0000 0000 0000 0000 0000 0000 0000
00000520: 0000 0000 0000 0000 0000 0000 0000 0000
00000530: 0000 0000 0000 0000 0000 0000 0000 0000
00000540: 0000 0000 0000 0000 0000 0000 0000 0000
00000550: 0000 0000 0000 0000 0000 0000 0000 0000
00000560: 0000 0000 0000 0000 0000 0000 0000 0000
00000570: 0000 0000 0000 0000 0000 0000 0000 0000
00000580: 0000 0000 0000 0000 0000 0000 0000 0000
00000590: 0000 0000 0000 0000 0000 0000 0000 0000
000005a0: 0000 0000 0000 0000 0000 0000 0000 0000
000005b0: 0000 0000 0000 0000 0000 0000 0000 0000
000005c0: 0000 0000 0000 0000 0000 0000 0000 0000
000005d0: 0000 0000 0000 0000 0000 0000 0000 0000
000005e0: 0000 0000 0000 0000 0000 0000 0000 0000
000005f0: 0000 0000 0000 0000 0000 0000 0000 0000
00000600: 0000 0000 0000 0000 0000 0000 0000 0000
00000610: 0000 0000 0000 0000 0000 0000 0000 0000
00000620: 0000 0000 0000 0000 0000 0000 0000 0000
00000630: 0000 0000 0000 0000 0000 0000 0000 0000
00000640: 0000 0000 0000 0000 0000 0000 0000 0000
00000650: 0000 0000 0000 0000 0000 0000 0000 0000
00000660: 0000 0000 0000 0000 0000 0000 0000 0000
00000670: 0000 0000 0000 0000 0000 0000 0000 0000
00000680: 0000 0000 0000 0000 0000 0000 0000 0000
00000690: 0000 0000 0000 0000 0000 0000 0000 0000
000006a0: 0000 0000 0000 0000 0000 0000 0000 0000
000006b0: 0000 0000 0000 0000 0000 0000 0000 0000
000006c0: 0000 0000 0000 0000 0000 0000 0000 0000
000006d0: 0000 0000 0000 0000 0000 0000 0000 0000
000006e0: 0000 0000 0000 0000 0000 0000 0000 0000
000006f0: 0000 0000 0000 0000 0000 0000 0000 0000
00000700: 0000 0000 0000 0000 0000 0000 0000 0000
00000710: 0000 0000 0000 0000 0000 0000 0000 0000
00000720: 0000 0000 0000 0000 0000 0000 0000 0000
00000730: 0000 0000 0000 0000 0000 0000 0000 0000
00000740: 0000 0000 0000 0000 0000 0000 0000 0000
00000750: 0000 0000 0000 0000 0000 0000 0000 0000
00000760: 0000 0000 0000 0000 0000 0000 0000 0000
00000770: 0000 0000 0000 0000 0000 0000 0000 0000
00000780: 0000 0000 0000 0000 0000 0000 0000 0000
00000790: 0000 0000 0000 0000 0000 0000 0000 0000
000007a0: 0000 0000 0000 0000 0000 0000 0000 0000
000007b0: 0000 0000 0000 0000 0000 0000 0000 0000
000007c0: 0000 0000 0000 0000 0000 0000 0000 0000
000007d0: 0000 0000 0000 0000 0000 0000 0000 0000
000007e0: 0000 0000 0000 0000 0000 0000 0000 0000
000007f0: 0000 0000 0000 0000 0000 0000 0000 0000
0.0 0.0 0.0 0.0 0.0 0.0 0.0 0.0
0.0 0.0 0.0 0.0 0.0 0.0 0.0 0.0
0.0 0.0 0.0 0.0 0.0 0.0 0.0 0.0
0.0 0.0 0.0 0.0 0.0 0.0 0.0 0.0
0.0 0.0 0.0 0.0 0.0 0.0 0.0 0.0
0.0 0.0 0.0 0.0 0.0 0.0 0.0 0.0
0.0 0.0 0.0 0.0 0.0 0.0 0.0 0.0
0.0 0.0 0.0 0.0 0.0 0.0 0.0 0.0
0.0 0.0 0.0 0.0 0.0 0.0 0.0 0.0
0.0 0.0 0.0 0.0 0.0 0.0 0.0 0.0
0.0 0.0 0.0 0.0 0.0 0.0 0.0 0.0
0.0 0.0 0.0 0.0 0.0 0.0 0.0 0.0
0.0 0.0 0.0 0.0 0.0 0.0 0.0 0.0
0.0 0.0 0.0 0.0 0.0 0.0 0.0 0.0
0.0 0.0 0.0 0.0 0.0 0.0 0.0 0.0
0.0 0.0 0.0 0.0 0.0 0.0 0.0 0.0
0.0 0.0 0.0 0.0 0.0 0.0 0.0 0.0
0.0 0.0 0.0 0.0 0.0 0.0 0.0 0.0
0.0 0.0 0.0 0.0 0.0 0.0 0.0 0.0
0.0 0.0 0.0 0.0 0.0 0.0 0.0 0.0
0.0 0.0 0.0 0.0 0.0 0.0 0.0 0.0
0.0 0.0 0.0 0.0 0.0 0.0 0.0 0.0
0.0 0.0 0.0 0.0 0.0 0.0 0.0 0.0
0.0 0.0 0.0 0.0 0.0 0.0 0.0 0.0
0.0 0.0 0.0 0.0 0.0 0.0 0.0 0.0
0.0 0.0 0.0 0.0 0.0 0.0 0.0 0.0
0.0 0.0 0.0 0.0 0.0 0.0 0.0 0.0
0.0 0.0 0.0 0.0 0.0 0.0 0.0 0.0
0.0 0.0 0.0 0.0 0.0 0.0 0.0 0.0
0.0 0.0 0.0 0.0 0.0 0.0 0.0 0.0
0.0 0.0 0.0 0.0 0.0 0.0 0.0 0.0
0.0 0.0 0.0 0.0 0.0 0.0 0.0 0.0
