models/reacher/benchmark/checkpoint_explorer_nes_layer_2.pth (torch_old, 29423 bytes, 3 tensors)

weight f8 [4, 300]
00000000: e5c0 2b77 2ef1 e53f 3670 9e55 8352 e4bf
00000010: 95ec 8a7a fe0f e1bf 7c5b 4293 61c0 dcbf
00000020: 9ec4 022f 0678 9fbf 17b7 09c9 c3b2 dabf
00000030: 0553 fbfb 1a16 e53f 9d1f 5755 d216 d03f
00000040: 31a4 582b 9318 b33f e25d 6669 cc19 f1bf
00000050: ba40 8090 1637 e13f 0bcd 63c5 0fa3 ccbf
00000060: ff6d 5d3f 796f d4bf 8729 12e6 3d66 a63f
00000070: ffcc 47ca 67d3 b03f 3d7b 6f39 42b5 df3f
00000080: 3e8d d422 ed65 e3bf a81d 9a37 0c01 b1bf
00000090: 26a1 3457 9cbd e53f eb73 170c 6051 f63f
000000a0: 4831 fda2 3b28 71bf 797d 1bb7 bcfe e63f
000000b0: 264c b297 dd2e a03f fcfc ff0a 18e9 f3bf
000000c0: ce1a a7f8 6c50 f53f 5c20 6be6 217e 98bf
000000d0: b493 6811 f0c2 a73f b87d d204 fe02 e2bf
000000e0: 1d17 e7cf 893f c5bf 4505 1ec6 8b46 dc3f
000000f0: 12d9 e05d 77bc 8dbf a10e 8baf cd70 ecbf
00000100: 107e b071 d439 e63f 2ecb 5960 b9f9 a4bf
00000110: 3569 2dcb 5dc4 e13f 32ca d11c 56c8 dc3f
00000120: 1c65 d86d 4007 cdbf 4618 e342 07cd 92bf
00000130: 74a9 0383 9860 c1bf b1b5 5b58 5e97 eabf
00000140: 1e3d bf0c 3577 ecbf a8ad ca7d 9488 e53f
00000150: dc49 06e9 9a37 e93f 9107 064c c31c babf
00000160: 32bb 62fa 2ff0 eebf 2fca e79f 05fe a4bf
00000170: 0951 5f4b 2e53 c93f 17f1 96fd e244 d13f
00000180: d58e d7bd ce11 ccbf b00e cfdd 34b5 c13f
00000190: 3c55 5df4 4d2d 853f df14 ac55 e9af c5bf
000001a0: 9ccb bfd2 a9a0 cdbf a228 b8de 3750 e73f
000001b0: f680 bc69 05fd e9bf d335 b8ec 21e1 dd3f
000001c0: 429a 2b44 b825 c1bf 71f8 8aa2 2d56 87bf
000001d0: 2499 b531 334e cc3f e052 8232 899f 91bf
000001e0: 7a76 c3ea b1a0 a4bf b8da 469f e1ee eebf
000001f0: 1383 c104 59fc 813f 844f 3744 a158 e63f
00000200: b1ec cc66 3364 c6bf 0e61 a89c 3e86 b13f
00000210: e196 e97b 871d a1bf b6e9 fd25 8e86 f53f
00000220: e15c 2244 5bf9 e23f cfc7 7244 a7ef f13f
00000230: f412 f61a c989 c63f 1e9c ac39 91bc e33f
00000240: d6e5 5874 fac7 d83f 01df abfa bf20 e9bf
00000250: 58e4 ba8e c05e d53f 8ee6 00dc cf7a da3f
00000260: 7ac8 8c73 66d8 e5bf a1e2 5833 d1c7 e03f
00000270: 1cff d682 f5ea a63f af9e 33b3 7510 c93f
00000280: 44ea d4ad 1aef 94bf 21ea eedc 9f63 b23f
00000290: 8286 c6be ff29 e43f dcfd f9bf d189 e13f
000002a0: ff24 af40 8eeb 7ebf a65e 5c94 b360 d03f
000002b0: 8fdb a007 507f ec3f af3f 51a4 b0df e9bf
000002c0: f20f 5023 3420 c43f 44df c63a aaee b03f
000002d0: 3607 2c0c 6e6c a43f f1d0 422d 2ebd f3bf
000002e0: 095c 5c4c 05d7 bdbf ce54 33c9 6058 df3f
000002f0: 5d72 7d92 3598 d93f c9c8 da23 17c8 cdbf
00000300: 697d c34f cee0 ecbf b0ed f413 4101 e5bf
00000310: 5c28 f659 84f7 a5bf 6b50 75ee 37f9 e93f
00000320: a8b3 513b 4257 ccbf 1645 8fb3 4875 a0bf
00000330: 0c5c f4f8 9aa5 f2bf a1a2 2db9 a941 f13f
00000340: 8c7b 737a 25db a83f 014b bbd5 5a7e d3bf
00000350: 79ee e0a4 76cb d8bf a6a5 bdf9 ed87 e23f
00000360: 531b 0725 7922 ee3f 7358 d1e5 2bf1 c03f
00000370: 7d66 e000 6b20 e4bf 117b 042a 576c e93f
00000380: f16c 5098 a879 a43f 07c1 b854 be50 ccbf
00000390: 3a56 957d bd6e c2bf d498 d396 874b d8bf
000003a0: 1891 4076 7ce4 be3f 22c6 16df 45e8 c6bf
000003b0: 139e 0e85 4a4c 903f e437 4c8d d161 e53f
000003c0: e6a0 97b1 9a2c b73f 4eeb 754d fbb5 d03f
000003d0: 65a7 4cf1 0443 953f b4d9 a6c2 00e4 b83f
000003e0: dd0a c0f3 a33e c1bf baef cedd b14d d1bf
000003f0: 4dea a37d 4e6d 90bf 9837 632f 5b0d b53f
00000400: e4fc b5a2 2671 ab3f 6555 09ae a876 b03f
00000410: 575d b56e 80ca f63f 4737 b52e e83e 9d3f
00000420: 0578 62c9 4608 67bf 2222 f6ed 677b b53f
00000430: 0325 6a35 5a88 e5bf 6435 0e12 c349 e7bf
00000440: 9084 e315 779d de3f 293f 86aa 2599 d63f
00000450: da3c 6fcb 899e c5bf 67b9 3951 767b c33f
00000460: 1906 5e68 d6a3 943f 8f7c bac8 b2bb d43f
00000470: 2ee7 bd98 236f 7d3f a3ed 8a58 6ccc f3bf
00000480: 8c50 3a69 309f e63f 9f3f 0e1f 14fd d7bf
00000490: 6e2a 5720 af8d d53f 2c3b daee defd c6bf
000004a0: 669b 4a0c cf0f 2f3f bfa8 2acc b9b3 b73f
000004b0: e598 e97f d607 ddbf d9ea 84d3 7f0b d1bf
000004c0: 2fd2 75fe 92e9 f33f a7c2 6940 61b1 ae3f
000004d0: 2d19 854f db46 e9bf 050d 4b35 d3fe d73f
000004e0: d1df 63b5 c118 a4bf 302a d8ee d005 983f
000004f0: ec19 a2ad 7f2b b9bf 6f13 6549 16fa f1bf
00000500: b0ab 6cae caa9 78bf bab0 bf7d b807 d6bf
00000510: 6417 4d82 e969 b13f 5003 ef75 6bc0 f23f
00000520: b1e4 c4e6 7be1 e93f dcf1 fd57 5dcf f0bf
00000530: 932e c399 df2d f03f dd0b 8c85 249b adbf
00000540: a23d 55c8 e320 7a3f dd8e 918a cfbe d53f
00000550: b7c0 6d26 91c9 aabf e030 4b61 fd22 ba3f
00000560: 03d5 9cfa 78e9 9f3f eb40 9dd7 09ce c33f
00000570: 9d88 2b32 2819 bb3f dea1 9042 d747 ca3f
00000580: 6a85 68bd 1bb7 e13f fd57 9017 4bf4 e93f
00000590: e3dd 6dd1 89a1 c63f 2d3f b976 8050 94bf
000005a0: 5553 7c2e ce7b 833f de77 fbad 63be c5bf
000005b0: ea60 b3ea 2a1b 6b3f 8bd4 2247 fc0a 903f
000005c0: 93af ee0a 211d 67bf 93e2 e7ef ea76 e7bf
000005d0: fe88 6a3f f2b4 eabf e2b1 b263 3e48 d03f
000005e0: 0ca1 bd38 8dc9 c43f 4338 c181 d558 99bf
000005f0: f5bf 9171 71fd d53f 11da 71f2 8bad babf
00000600: 6998 b55f eece de3f 11bb 3fba 7fd8 b1bf
00000610: f5ab abfb 113e e8bf c53b 06d9 9f96 e93f
00000620: ccf0 5188 09f6 df3f 09dc 2783 8db0 b2bf
00000630: 7a5f baff 9a50 af3f 3a3b 8ebd 711e eb3f
00000640: 908d c97f 3394 dabf 93ea 9053 e5bb 9cbf
00000650: 11b6 fcc4 95a7 ecbf e987 e5e1 6527 f5bf
00000660: bdc4 1059 cc1d eb3f 97d1 e1db 28b5 aabf
00000670: 27dd 61e0 6b81 6cbf 5297 3eca b85f dc3f
00000680: 7595 e62b b0a9 c4bf 3ddc 5fdc ed24 f53f
00000690: bed8 b3cc ed54 90bf 3ede d9ee 4686 d6bf
000006a0: 7868 1d58 c84b 533f 2ae9 b586 bf39 cb3f
000006b0: 76ce 896b 098b e3bf 56ad 6fac 1c68 e83f
000006c0: 5553 45a8 a74b d2bf bc5c 5647 b5fd e23f
000006d0: 690d 79e3 5409 b8bf bc8f 8916 865c d63f
000006e0: e3f2 7b87 18cb 53bf 4946 6b21 b167 72bf
000006f0: c4b7 902e 99cb e63f 0f41 6016 1ac2 a23f
00000700: db22 821b cdcc eb3f aa46 bcc2 7c05 b3bf
00000710: c229 732b 0b5e c03f 3d0b d139 6725 c03f
00000720: c7c4 08d8 e8a3 d8bf 1a53 63b0 daac 8a3f
00000730: 7908 c568 6744 e1bf 52ae 565f 301f edbf
00000740: f4f6 01e7 65f4 a13f 0add 1adf 9524 e53f
00000750: 5939 813e cd82 a8bf e1b6 1776 27bc c1bf
00000760: 215d 2b28 babb 83bf d51c 9747 5917 d73f
00000770: 48cf 0617 db33 d93f 01ca 6394 54f3 d43f
00000780: b909 fdd3 cfd1 e4bf 82cf ee32 43e9 e5bf
00000790: 4e68 9135 a7cb d4bf 6daa ae97 73e5 ddbf
000007a0: c62f c356 ae23 d73f 8b59 484f 619e e53f
000007b0: 4131 f5fc df2d e63f a56d a3eb 56b1 a4bf
000007c0: 55b8 f704 7e12 f83f f9ea 529b 0c29 a43f
000007d0: 2b7e 96c5 5851 d2bf 3a52 3f58 5c22 be3f
000007e0: 8d8e 9465 a440 da3f 8597 4158 7b2a b4bf
000007f0: b072 32b6 fdc7 b73f 8eca 85b2 68aa a13f
0.6856911017948987 -0.6350723907703528 -0.533202399579198 -0.449242013747998 -0.030731293315231605 -0.417160936666606 0.6589484139936707 0.2513929208184836
0.07459373291261852 -1.0687984578306602 0.5379746267590442 -0.22372624529052873 -0.31930381000503866 0.04374879296763639 0.0657257908676918 0.4954381523984244
-0.6061921768454466 -0.06642223699065275 0.6793958380922376 1.3948669884041418 -0.004188759761586454 0.7185958458248215 0.03160755612147907 -1.2444076947866156
1.3321351731298594 -0.02391865700590788 0.046409132123052116 -0.5628652662452884 -0.1660015359067807 0.44180578563107914 -0.014519627144278267 -0.8887699535921066
0.6945593090530924 -0.0409677438846273 0.5552205055530864 0.44972756208804576 -0.2267838035921067 -0.018360246140922486 -0.13576036832030136 -0.8309776044604203
-0.8895516633000715 0.6729223687047368 0.788037734151938 -0.10200138670009397 -0.9668197527260871 -0.0410005338379914 0.19785097770967067 0.26982950939761124
-0.21929344434385337 0.1383424838114613 0.010340317745127885 -0.16943089183056423 -0.23146555700767812 0.7285422658908554 -0.812136370197577 0.46686599843164095
-0.1339636166441825 -0.011394840739168384 0.22113647391524538 -0.017210143764333163 -0.04028850546613412 -0.9666603194117078 0.008782096345556966 0.6983190853447785
-0.17493288535647403 0.0684546596970714 -0.03342841518023732 1.3453504070335902 0.592939026903789 1.1210091279758563 0.17607988182512424 0.6167684675646148
0.38720570909535235 -0.785247792809031 0.3339082139824021 0.4137458466026168 -0.6826660401186608 0.5243917467951925 0.04476134512105842 0.19581481218414384
-0.020443360195012042 0.07183264869573992 0.6301268316348827 0.5480736493627165 -0.007548862146856238 0.2559021900974393 0.8905410908690657 -0.8085559090923108
0.15723277782683415 0.0661417382715373 0.0398897542818432 -1.2336866157539215 -0.11656220545079078 0.4897691693161733 0.3999151163641608 -0.23266877413477108
-0.9024421270259327 -0.6564031019001302 -0.04290402982867711 0.8116721780193193 -0.22141292473261598 -0.032144805830862364 -1.1654309963976202 1.0785310014272584
0.048546954343456766 -0.30458708641269544 -0.3874184236662824 0.5790929677725003 0.9417081568907214 0.13235996934480773 -0.6289572732086551 0.7944751568464615
0.03999068126014461 -0.22121409546662837 -0.1440045226287781 -0.37960996369510025 0.12067392241494124 -0.17896340744987166 0.015916027423058376 0.6681907424660918
0.09052435718297466 0.26110727848543014 0.020763470866917006 0.09722904922714443 -0.13472413446296275 -0.2703671136948703 -0.01604197160575387 0.0822350493137648
0.05359764801232261 0.0643105912107181 1.4244388889836352 0.028560283518621856 -0.002811563735192204 0.08391427573781887 -0.6728945773367346 -0.7277541496893432
0.47836091172764217 0.35309735920690116 -0.16890070374799998 0.15220526662910602 0.020156240577767635 0.32395619966877914 0.007186068581967393 -1.2374080141733905
0.7069322638731292 -0.37482169182566766 0.3367727104020223 -0.17962252295225178 0.00023698236886568052 0.09258614763772054 -0.45360338679746653 -0.26632686287090973
1.2445249500134528 0.0599470511559777 -0.7898994973300312 0.3749282856408203 -0.03925137843356164 0.023459686830429927 -0.09831998814670556 -1.1235564105020008
-0.006021301006323407 -0.3442212322249919 0.06802234107189303 1.1719774824889164 0.8087749011239308 -1.0506261288820644 1.0111995703072452 -0.05782426958287321
0.006379022384251172 0.33977116138542646 -0.05231908411121949 0.10209640145621135 0.0311640646898086 0.15472529438057533 0.10585261559347932 0.205317409040858
0.5536020945911961 0.8110709629279423 0.17680475927384895 -0.01983834004050704 0.00951348380434928 -0.16987272258023628 0.0033088529795400794 0.015666906205940506
-0.002821507011921251 -0.733266323629396 -0.8345881689640746 0.2544094060529273 0.16240086813491705 -0.024752937359430637 0.3435939416003742 -0.10421061200199967
0.4813800749456108 -0.06970976159184895 -0.757576934379698 0.7996367682225062 0.4993919211626803 -0.07300648166697966 0.06116184589080738 0.8474663450486795
-0.4152954814837466 -0.028060515618771275 -0.8954571578412375 -1.3221186470113884 0.8473874797401987 -0.0521633881006977 -0.003479681679035135 0.44334239721716984
-0.1614284719809508 1.321515904271805 -0.015948978060770662 -0.3519456226854095 0.0011777359472575893 0.2126998336569355 -0.610722265277629 0.7627089851279532
-0.28586760933585725 0.5934702294643084 -0.09389238885437624 0.34939720345414194 -0.001208089784937965 -0.004493419567283726 0.7123533162573428 0.03663713000435297
0.8687501466057158 -0.07430248026164557 0.1278699838788509 0.12614145587039075 -0.3850042447766779 0.013025005824979941 -0.5396000906259949 -0.9100572454530698
0.035067734193018923 0.6607159955518978 -0.04787293804166621 -0.13855450884096057 -0.009635404921410075 0.36080009452093736 0.393790028082766 0.3273517083281661
-0.6506117954634681 -0.6847244257719327 -0.3249300025105456 -0.46712961018298566 0.36155279610533986 0.6755835102547264 0.6930999699193664 -0.04041549326367581
1.5045147127198295 0.039375680885731464 -0.2862150125092479 0.11771180300213127 0.4101954452509993 -0.07877322106068448 0.092895371419625 0.03450324229460931

sigma f8 [4, 300]
00000000: ca07 e617 2884 bf3f 3bf8 9d57 09e8 8abf
00000010: 9b95 e36c 849f 85bf 4059 9838 c2c1 b8bf
00000020: 9024 44a5 0d55 a6bf 7211 4695 04ac 973f
00000030: 85f7 5a6a dc72 a6bf be92 477b 89d1 cebf
00000040: 0f98 4289 c756 9ebf b11e 38f6 b683 983f
00000050: 6e34 a2ce 361a c3bf bb12 138c 0524 b5bf
00000060: e794 8b8c 56f5 c6bf 3e78 c961 6ea7 92bf
00000070: 5754 491e 7324 a33f 0383 4993 8a08 b2bf
00000080: 1116 5b50 b3d6 c03f b536 e7f5 c15f 843f
00000090: 3fae d4d8 0a57 b73f 7a72 cbcb a0e9 c8bf
000000a0: ca8d d6d3 e545 843f ee15 11a0 bad0 c7bf
000000b0: 0f02 4673 0463 8abf 08a3 57e9 af49 b4bf
000000c0: 0426 c646 ba10 983f a6aa 8f45 1dd6 883f
000000d0: faab 2bf6 ce47 bcbf b3b8 1559 83c1 c03f
000000e0: 3769 8bbc 1a73 8c3f 009f f572 1dc4 c0bf
000000f0: f63c 2259 45de 52bf 50f8 262e 3f71 853f
00000100: 2299 478c e724 afbf 1597 ff84 b298 ad3f
00000110: 0abb 26fe ce40 ce3f 780e 6e54 bf71 aebf
00000120: 9a30 8084 c3bd b63f a485 19a3 a283 a03f
00000130: 854d 5ebb 8c0f 903f ffcc 77ec 8c70 c2bf
00000140: 2da4 d3a2 0384 a3bf ddf5 c69d 92fe 6ebf
00000150: 0177 ec76 95f7 c03f 7998 54dc 72d6 a9bf
00000160: 7d50 8c5d a8f3 c23f 973b cfba 3400 c43f
00000170: 52e6 a313 67ca a8bf dbf1 ff8e 838f 3dbf
00000180: b88c 981d 2c47 c13f 4730 72e8 eec2 763f
00000190: 4b4f 832a b6fe c2bf 8df9 4434 ee00 a03f
000001a0: 9fe0 b084 ce65 a93f 2570 9947 294c b1bf
000001b0: 5a9e a167 08b4 c23f 32c9 9e5b 85d6 bb3f
000001c0: c129 7b37 c093 9abf ec42 3e3a 538d a7bf
000001d0: 8b6d 7692 df55 ccbf a481 5f65 7033 a0bf
000001e0: ca50 3fcc 9534 b53f befd 2509 8cf5 72bf
000001f0: f339 5740 9cf9 bdbf 64e9 aea1 22f6 a3bf
00000200: 8bb6 d23f 5c1e ccbf af81 6125 8727 a0bf
00000210: 0450 4e73 93ac 67bf e2dd b263 9895 bb3f
00000220: 58b2 0f92 54d9 8a3f 3e61 b892 2f77 b2bf
00000230: 2fe7 9cce 5990 793f c759 a969 d755 b2bf
00000240: 4eea 5077 5bf3 823f 4775 a573 a38a cd3f
00000250: ca7d 1dfd 6cac c53f 8494 2aad e8f0 b03f
00000260: 306a e2d6 404d a53f b66a 178a 4372 a1bf
00000270: 2d1f 9f4b fa02 ba3f f108 c589 4613 853f
00000280: 7181 49ac 8e57 9f3f 652e 4607 1416 adbf
00000290: 195b 0bf3 786d ad3f 0588 62ff 4d23 a6bf
000002a0: 5bb3 2f50 196b 86bf 0eb6 abe0 3bb2 92bf
000002b0: daa0 18f3 e6a2 b7bf e5de 5a08 6921 b3bf
000002c0: 3b51 0cfa 487f acbf c048 2681 f21b 883f
000002d0: f4c8 ab4e 8225 a4bf 6e79 2f87 0069 b83f
000002e0: 0b2e d509 4c51 a13f 9394 c6b8 b470 a13f
000002f0: 2ed3 d6b3 aba8 c9bf 74dc 02a6 cce8 b6bf
00000300: 0857 5238 e833 a0bf 2541 3365 1ef7 c4bf
00000310: d8f7 8ce3 b15e a4bf 50ac 050a 169d c0bf
00000320: c20e e1a6 2f92 a4bf 92ee 8fa2 40ff 8c3f
00000330: 8353 a9e5 154a cebf 8dde 3315 d72f 9c3f
00000340: 6fff 1ab5 78ff c2bf cd45 e0d4 dd84 b3bf
00000350: 4157 c966 1d38 99bf eff6 3ccf 6ea9 903f
00000360: 805b 7b5e b55b a13f 7a41 a998 f73f a5bf
00000370: 86bf c92a 208f bfbf ba6b 2180 bc0f a53f
00000380: 8f4f e1c5 ec13 b1bf aa71 0fa4 e6a2 a13f
00000390: 47df 431f 4ccc b23f 6017 36dd 5a13 cd3f
000003a0: a3c2 5b21 879b b2bf 9265 9466 37d8 893f
000003b0: 8391 8403 6b3a 64bf 793a fcdd c27b b53f
000003c0: 4688 51a3 d687 c03f 37f0 4cf3 8180 ae3f
000003d0: eb75 b6a8 2929 aabf 85ae e1ca e2a1 ab3f
000003e0: 31d7 70a2 62b3 c9bf f8d3 f090 1a59 b2bf
000003f0: 94bb 2d2b 30cb 903f 43ae 0153 35ba a03f
00000400: 2065 28ae 52e1 a03f d056 35d0 bc40 aa3f
00000410: a083 22f1 4bf4 bbbf 80cf d99e 8e81 bc3f
00000420: f4da ffb9 f997 8a3f 4243 c71a 9bb5 a23f
00000430: eada 771b 7cdb b7bf 62b1 f9d1 1fd9 b4bf
00000440: c21e 5dd1 a791 b63f 159c a638 f54d 943f
00000450: 3568 d1f5 4a53 abbf 5875 0626 2134 953f
00000460: 3d7c 0a54 aa76 a53f 2c3b f819 8e32 093f
00000470: 167b e45a f2c5 a83f 87b5 e639 16db a1bf
00000480: 03a9 bfe6 7f45 b53f 1411 fcd4 fa98 ba3f
00000490: 8080 5517 b6e5 a5bf fd24 4323 90d0 9d3f
000004a0: 4cd3 802e 368a 97bf 9977 117c bd9a 953f
000004b0: beaa 132e b1da ca3f 66fd 0ea9 04cd 71bf
000004c0: 860a d260 23c0 b83f 50f1 9b22 7431 abbf
000004d0: 8777 291e 9852 ba3f ccd4 df5f 768d 98bf
000004e0: a3a6 e6ea 4ff7 aabf ee2c 987c 2c74 b13f
000004f0: e50e 16e1 01db ac3f 7a7e ddf4 f23f b4bf
00000500: 826b 82d4 4c68 a73f d86a 07bf ac7a a4bf
00000510: 75c9 26da 1412 c1bf e440 684a 0223 c3bf
00000520: 8717 6c2f 7a93 9cbf d589 c665 9096 b03f
00000530: a19f f82c e1e5 b7bf 0f23 6e32 04cb 41bf
00000540: 37fb d62a c89b 8bbf 703d 75e3 b56a c03f
00000550: 4a67 2d46 dca2 a7bf 8689 00c1 6c7b a6bf
00000560: 0c80 6d0b 43e6 ad3f 1c17 8908 d391 9ebf
00000570: 7fd3 654b c84b aabf 24ed 619d ffad b7bf
00000580: 4633 6b6a aaf8 8abf 16db cee8 2fd1 b6bf
00000590: 6604 e0de c7f7 733f 232f e813 7868 64bf
000005a0: 6178 abb3 ae68 65bf a19e fcfa 00e4 113f
000005b0: da50 dcdd 030e 7a3f 39e2 f3b0 2f0d be3f
000005c0: 88a8 4aa5 399b 913f 07da 4fb1 e2d2 b5bf
000005d0: b476 34e1 e187 acbf 5184 200b 8e73 63bf
000005e0: f71e a4c7 09db 81bf 5b0a 7092 120b b73f
000005f0: 9f55 f810 604a 89bf 880b b4f3 6fd3 c73f
00000600: 40e3 d93e ce9c cebf 0a27 11d1 5f53 85bf
00000610: 281e 9ed4 35da be3f 84d0 2b68 1ca8 97bf
00000620: 604b 07a0 5631 94bf 59a6 18dd 11f2 943f
00000630: db3e 6d5c d19d 963f 9954 f157 28f5 c9bf
00000640: 829c e33d 7a07 a8bf 2504 b694 27ff a4bf
00000650: c43e 3ef9 98d1 b83f 01ab c76f 5c00 bebf
00000660: 4eb3 2b43 50e4 953f 6c30 5e23 f44e a4bf
00000670: 6ed2 4713 87e4 a13f c5f2 d5ec fac8 ac3f
00000680: abe8 f71c 7a80 b9bf 38c8 d341 f5cf c53f
00000690: 4adb 2119 335a 9b3f 3a49 da1b 148b c6bf
000006a0: c651 2559 867e 73bf a695 1ab2 d776 6c3f
000006b0: b77d 6cf2 39f8 b23f eebf e011 6453 b23f
000006c0: 8c1d 3295 0292 643f d7bf e53f 0aaa a8bf
000006d0: ba4d cd14 4b6c bebf bced dd8e 6eb3 c9bf
000006e0: 357b cd45 807a a2bf 8bed 4a5b 46cd adbf
000006f0: cf39 a3ca fe02 b13f dea2 ec37 7b9b a43f
00000700: 907c 51cc 546e ad3f 07de d736 5bbf a4bf
00000710: 37e1 c8e3 d972 9ebf f8fd e7a9 6519 93bf
00000720: b5f8 fae7 47f1 a2bf 9a31 f41a 03f7 8dbf
00000730: 50d3 0075 3239 a93f a998 0210 d1f4 a6bf
00000740: 4ecb 2c85 d7b8 a83f 2d8c c68b 428a c63f
00000750: 92d9 82cb f0e8 7ebf 05fe d1fe 8ac3 593f
00000760: c929 2be0 6857 bebf a611 3704 9e18 c13f
00000770: b04b 7517 cb12 bbbf 0af8 b827 5613 b2bf
00000780: f5d3 2172 69c1 c2bf 5400 ad1e 5375 973f
00000790: 9034 aa4b af27 b5bf 866b bc7b e0b2 b7bf
000007a0: 2e23 eb37 e919 c43f da98 3b60 debd c33f
000007b0: 8e93 851a 9192 8cbf c753 21ca e583 9dbf
000007c0: 68c3 b3b9 b630 b3bf e8c4 fab5 f6a1 a03f
000007d0: 64a5 63d2 2190 babf 7413 92de 467d b33f
000007e0: 7fbf 8786 17a9 933f ed8c 7c97 1a15 8d3f
000007f0: 000f b7d9 1590 d0bf 3c1b 025e 2486 b13f
0.12311029990635727 -0.013137886988030192 -0.010558161328343021 -0.09670652276722524 -0.04361765520486316 0.023117133723205403 -0.04384506986887885 -0.2407695629073227
-0.02962791228551259 0.023939951684978925 -0.14923749055415975 -0.08258089704311093 -0.17936212408600413 -0.018216824263042712 0.037387463996005614 -0.07044283004644218
0.1315521376001674 0.00994826823889681 0.0911719111797362 -0.1946297640887627 0.009898944403920935 -0.18605740371474105 -0.01288417317187032 -0.07924937674364341
0.023501310891822072 0.012127140698756488 -0.11047070989631882 0.13090555047842187 0.013891419295238279 -0.1309849559140659 -0.0011516263225848622 0.010469907375291992
-0.060828433870300694 0.05780561326518644 0.23635280046206503 -0.059461573654542244 0.08883306488877665 0.03225429764712409 0.01568431752782608 -0.14405976816451724
-0.038116563440617625 -0.0037834991073555217 0.13255565935917704 -0.05046423854428012 0.14806084220674967 0.1562562858730103 -0.0484192096209425 -0.0004510589778872456
0.13498450703727882 0.005556996569009049 -0.14839818073107333 0.03125709903769112 0.04960484857332514 -0.0675683784297126 0.14611916599391145 0.10874207960913365
-0.02595424975042149 -0.04600010000206631 -0.22137064601416187 -0.03164244878257996 0.08283363567835803 -0.0046287031312881016 -0.11709000178164057 -0.03898723815605612
-0.2196765243183346 -0.031551574051948854 -0.002889907826508777 0.10775139268923042 0.013109837253034204 -0.07213113147770842 0.0062411792840125066 -0.07162233667018035
0.009253229693162581 0.23079341074746137 0.16932451590672165 0.06617597797101565 0.04160502074337946 -0.034074888808125633 0.10160793634633754 0.010290671424290273
0.030607442155429824 -0.056809068572957234 0.05747583357668002 -0.04323810331813153 -0.010946462401955228 -0.018258033359350327 -0.09232943949666908 -0.07472855047205547
-0.05565860798211238 0.01177205521233693 -0.039348671058080514 0.09535220432687705 0.033823372078213586 0.0340630031162529 -0.20045992165764787 -0.08948973706252322
-0.0316460198165896 -0.16379146520058288 -0.039784964587383065 -0.1297938870369273 -0.040177811738002514 0.014158730469709089 -0.23663591112076796 0.027526245755295654
-0.14842137187042279 -0.07624613234681661 -0.02462812366351064 0.0162713350284695 0.033902805121832635 -0.04150365580119604 -0.12327767414694621 0.041135683670936854
-0.06671027976091025 0.03444596054734757 0.07342983020123227 0.22715316582997058 -0.07268566669859892 0.012619431322081796 -0.0024692621338024425 0.08391969604074657
0.12914545988593512 0.05957418532349872 -0.051095296711746695 0.05396946646291404 -0.20078690463713536 -0.07167211569397114 0.016400101313987017 0.03267065656913506
0.03296907783460257 0.051275158325251646 -0.10919642102318372 0.11135188463395984 0.012985182751419334 0.03654179288753891 -0.09319282217607464 -0.08143805385924943
0.0881600271360368 0.019828635771457288 -0.05336984873493159 0.020706670709491476 0.04192096973314861 4.806038054649126e-05 0.04838521346595408 -0.03487462479402397
0.08309172996056095 0.10389678668804364 -0.042768183086765 0.029115917350996934 -0.02298817309220462 0.021098099420093417 0.2097989535316937 -0.004345911221150222
0.0966817962053402 -0.05311167643046366 0.1028227876317641 -0.023977136232095117 -0.05266809217876058 0.06817892114502275 0.05635839340814445 -0.07910078504709786
0.04571762174710782 -0.03999843437096268 -0.13336430217675468 -0.14950588830152534 -0.02790633120004984 0.0647974251246873 -0.09335143421105709 -0.0005430002682809981
-0.013480724151006747 0.1282565460810292 -0.04616440159470743 -0.043910406646563024 0.058397383828150934 -0.029853150745359533 -0.0513594238317756 -0.09249875633570476
-0.013169604656832267 -0.08912944253721053 0.004874974007180821 -0.002491220976713297 -0.002613393034478981 6.824737533561244e-05 0.006361022094797353 0.11738870687612114
0.017193699563599313 -0.08524910763649284 -0.055724200001561114 -0.0023744367872642687 -0.008718563466131963 0.09001270365846763 -0.012348890798459076 0.18614005469870798
-0.23916032856848268 -0.010412930076330724 0.12051712456570185 -0.02310222993669743 -0.019719460980762604 0.020454672927519322 0.022086402193337 -0.20279411596371658
-0.04693204884989034 -0.04100917520828088 0.09694820485151029 -0.11719300965311776 0.02137875947930761 -0.03966486865746863 0.034946652511199314 0.056220857058155306
-0.09961665351139241 0.17040887560102802 0.026711271676016758 -0.17611934051508077 -0.004759335325009001 0.0034746372992510875 0.07410013359594002 0.07158494411919467
0.002511029285930005 -0.04817230253217957 -0.11883992441044358 -0.20078832603381425 -0.0360908589561774 -0.05820674766934094 0.06645195433814098 0.04024872834844982
0.05748238557929952 -0.04052243275139849 -0.02973499729907411 -0.018651569838764787 -0.03699707705298875 -0.014631294498507686 0.049264504225368655 -0.04483655281482985
0.04828523159667118 0.1760943586824352 -0.007546368222554627 0.0015724999787208882 -0.11852126572481504 0.133563758905564 -0.10575551340779898 -0.07060755224026152
-0.14652746270044728 0.02290849566202298 -0.0826367912033723 -0.09257319470309086 0.1570407412566736 0.1542318315397953 -0.013951429006462648 -0.02882346197323551
-0.07496206315751197 0.03248568507604849 -0.10376178156334032 0.076130322779205 0.019199721895290175 0.014200408695222733 -0.2587942720531231 0.06845309538958316

noise f8 [4, 300]
00000000: 6151 031c cd03 ecbf 3ace 467f 42d8 b33f
00000010: 8634 281e 6729 d2bf b81d ed9d 2dfb fa3f
00000020: 8217 255d 4f86 f4bf 17a1 f9db b0d7 e83f
00000030: 7619 42a0 2211 fabf eda2 a3d3 54c7 f73f
00000040: 4279 3113 6f2e b4bf 4204 d437 fed1 fbbf
00000050: ca40 322f 1431 edbf a5e7 7ed2 338e e4bf
00000060: 9260 d68c e03b fd3f b9cd f53c 6758 ee3f
00000070: 1a8c 1c66 2fb6 b23f e631 0ace 9551 ff3f
00000080: 1c35 8eeb f0f7 f63f fc6a 514e 855c 9dbf
00000090: 6155 2d3a df12 e13f c4f9 e3d1 8d92 e7bf
000000a0: 6c03 6468 a181 f33f d495 9703 9cc2 e2bf
000000b0: 5c56 24ab 023c ce3f 8639 b12b 066e a83f
000000c0: 07f7 3d85 7319 ddbf 46fb 7971 76ad 03c0
000000d0: 74be 10be 4aa9 f5bf 7b62 e86c 07bf f1bf
000000e0: 1e7f 57fe 55bf e9bf f173 453e e144 eb3f
000000f0: f32d 5d58 fb66 08c0 8402 5958 e1de e9bf
00000100: 2f3f d911 bf17 db3f 2ac8 e74b 3f36 ecbf
00000110: 11a6 9be8 dc8d dd3f 4802 3b6a c0df f0bf
00000120: acea 72b8 e684 f03f ae81 2394 d868 c23f
00000130: 77e1 7eef 7856 e83f 1d0b 65b8 18e9 f13f
00000140: 77dd 0f4a 1f36 e0bf 3354 b4ee 142f d3bf
00000150: 49bc e01f 0358 d4bf 6f2a 73b9 33a3 cf3f
00000160: 50ba 8e37 e62f dd3f a8bc b7e5 5d52 d23f
00000170: 7470 ad67 8557 ef3f 8282 eede cffa aa3f
00000180: 59e6 c33f 10f8 ecbf 1409 4e25 996c bbbf
00000190: a8b3 5165 e780 f43f 3eea 6b25 500d fc3f
000001a0: 908e 82b2 8f48 c73f fd41 e2b4 8408 c8bf
000001b0: 9eba a9d8 849f f13f 6cad d05f 406d fcbf
000001c0: 2731 22cd 5923 0140 82bf 13ff 3d6a e9bf
000001d0: d465 fcdf 808b e63f 10f7 cc33 496d 0a40
000001e0: 5502 efcc ddfd f1bf 7e8e 4a61 b704 c43f
000001f0: 3834 19a7 7e9a e33f e336 32b7 f8c4 f83f
00000200: 669e cfd2 40a2 e63f 7980 5951 bbbe f2bf
00000210: 2b8c 2c20 3bd2 e7bf c007 6f6e 2cb0 f1bf
00000220: 0429 3fcf f794 f03f 22fb 8d24 d5d5 75bf
00000230: 4d77 425e bb6f a4bf 5043 f2be 9061 f6bf
00000240: 85f1 ed5a 3d31 d4bf 8f26 e638 9dfd e4bf
00000250: 2d6d 43a8 99f0 ca3f 611e 35f3 11df e0bf
00000260: b61e cbd9 01ce f9bf 74fc c918 5a8e cf3f
00000270: 087a 8bfb b664 ee3f 8294 9e57 eacd e1bf
00000280: 958e e461 6302 f33f 5d9d 0703 2928 dc3f
00000290: c0ef 6669 e84a a5bf 715d b9ad 9ce0 d13f
000002a0: 394a 6a57 fb44 dbbf be7a f24d 9b66 893f
000002b0: d264 eccf 90ff e9bf 50c6 4251 388e ebbf
000002c0: 636a b4cc ba8e 0440 f9cc 8aa1 8375 c23f
000002d0: 70aa c59d fb16 f63f 1f2e 8886 bc99 e53f
000002e0: b7e3 1e64 4c87 d9bf 5862 c807 13e1 dd3f
000002f0: 750d 67e9 6aec b43f c293 eb13 f5ed dbbf
00000300: 61cd 9810 e59c b6bf ee08 da2f bdaf d33f
00000310: c5f3 e9db d275 d3bf e45a a58b c09b f1bf
00000320: 0a68 0e81 7d25 dc3f fd79 f6ed c982 dabf
00000330: 9f6c 31dc cd7c cbbf 6b62 1679 ef7f ecbf
00000340: 7d6e cf1e 8812 dcbf 69d7 6bc1 fbef 03c0
00000350: d2b8 c6ba d2cb f7bf 4897 91ff af80 ec3f
00000360: b966 b8c8 2e42 dabf d855 47ec ff23 fbbf
00000370: 0a5b efaa 2b55 edbf d0ff 5722 c31b f93f
00000380: 7c78 e9a7 d95e ec3f f673 a3c3 14cd d7bf
00000390: d294 1308 23aa ef3f ac4c b5dc d096 e0bf
000003a0: b4ab add7 d1cd efbf 8035 a4cf f711 ffbf
000003b0: b7f4 72e7 c97d b7bf 321d a66a 89ad d9bf
000003c0: 32ee 0e9d 2f06 cc3f 4288 850a 1132 e43f
000003d0: 1822 ee47 b830 ba3f bf18 a51e 53e0 0040
000003e0: 440c a8f0 2683 b2bf 6c13 e8f9 8b6d e43f
000003f0: c8d7 1ea0 9560 e33f 3a18 17c5 4559 da3f
00000400: efda 3972 9650 d33f 40bd 22d3 01e1 ed3f
00000410: 972a 1f03 8bc8 e9bf fb6e cfb4 5209 fd3f
00000420: 4100 f7b6 6ca5 f3bf 32f7 ce20 a7f4 f8bf
00000430: 8d98 eba2 641f c8bf 546f 9d2f 41da f5bf
00000440: 67c6 65a3 9c44 f7bf 3ca1 f6ef 0096 e9bf
00000450: 1977 e394 2858 f43f 1728 71f0 0248 f13f
00000460: d44e f3a5 f817 f33f f457 637c a5cf f03f
00000470: aafb c63e f8b8 fa3f 9a68 c7d6 523c f73f
00000480: e3c1 0679 f134 e7bf 87ed f79d 9458 febf
00000490: 7721 9d9e a06d e33f be1a df1a 4911 b5bf
000004a0: 9b6c ba67 f00b f93f 45a6 f8e0 1a05 c6bf
000004b0: 8d76 1568 8a84 ecbf 9f93 9139 2f27 ee3f
000004c0: 475b b778 8857 ee3f 197e b196 2e53 cfbf
000004d0: 23b0 bd62 f608 d83f eda2 7a8c d759 f43f
000004e0: b8d6 6be7 a6a4 f0bf 71a4 a211 010f d1bf
000004f0: 717f 3215 92b8 f63f e024 7aea c74f d9bf
00000500: e0f3 8beb 7e63 fdbf 56ee 4229 6161 db3f
00000510: 4666 1def 90f2 eabf 02d1 1d23 8798 babf
00000520: 8fc4 84c9 56d2 dbbf aa5a db37 039b f5bf
00000530: beef 4658 a384 00c0 f486 14bb 5385 f2bf
00000540: f4c2 d026 daa0 e83f 49f1 0c56 6e87 d4bf
00000550: 6f73 34c8 188f c3bf f77e 1172 ac92 f53f
00000560: 65e4 4f3b fd56 a63f e002 0a2f 9a2e f3bf
00000570: a16e 6dc8 8401 fbbf dda3 8667 adb5 f93f
00000580: 70d4 7dc4 325b edbf 9af0 9fbe 22a5 04c0
00000590: 491d cacd 7373 e7bf da2a eb00 af5d e9bf
000005a0: 3518 a902 cc33 e2bf bb56 be48 1a59 e03f
000005b0: 91a8 60a9 fec4 ec3f ca87 b96f 39ef f6bf
000005c0: 90f3 b4e2 5498 e83f 9cc0 d400 17c2 d83f
000005d0: 530f b5d8 20ea bbbf 734f 2163 7dab e7bf
000005e0: 26ad 35e1 975b f43f 8134 e755 05e1 e03f
000005f0: fd09 c386 13ce cc3f 8c9a 3fe2 d52d f4bf
00000600: e922 7106 bd54 c83f a0fd 135d 3aea eabf
00000610: ea56 4ccc aa63 e13f 5dce 148f 0423 b53f
00000620: ec63 5cac 84d2 df3f 9199 98c4 9f04 05c0
00000630: 8c2e 7c9e cb6a f4bf cc5c f12e f9e3 c93f
00000640: 1927 756f 5ff6 fcbf 3c88 8bad 325c fb3f
00000650: 122e 31b6 93a1 bcbf 2c44 4b1b 7ba4 ecbf
00000660: c957 ce29 4c8b ebbf 2af8 a936 fca3 f13f
00000670: d1d4 3d50 5a24 c4bf 85aa 911e 0d3c f5bf
00000680: 5195 cbce 1d88 fb3f b190 7099 2419 fd3f
00000690: 5aae e798 d063 cfbf b709 1487 4b47 f03f
000006a0: 57e5 1431 b0fc 533f 18dd 9e61 d4d9 d7bf
000006b0: be28 4b0b 34b4 d8bf 5d47 755f f509 e6bf
000006c0: 40d4 fc7d c0d0 c5bf 9472 cb8f 6141 f8bf
000006d0: 01cb ea83 a3bc e53f e3a3 6f7c 36eb d93f
000006e0: bf0e 03e7 3c2f d93f b51b bad5 6c66 c83f
000006f0: b311 662c 3409 c9bf 479b 2b8c c2fa e33f
00000700: 993c 0e8a eb22 c23f 227f 2f21 6aed 0440
00000710: 2986 0187 87ac f63f d5d4 cbb9 66c0 dd3f
00000720: 4e3e 1271 4362 c43f db00 6d91 dcc9 ddbf
00000730: ba05 e51e 1066 d03f b755 cdc3 6b9f dc3f
00000740: 0e3a 0d6d 4113 f4bf 10d7 9345 b0d2 f3bf
00000750: 0f89 55ca cd47 f03f aacf e490 8374 f7bf
00000760: 0d05 cb6b 21e7 e6bf 05d5 a47e 9c09 dabf
00000770: 8116 5fcb 5cbc d43f c1f9 39aa 9ae9 efbf
00000780: 4698 bd1a bf9a e83f dae8 b1b2 11f0 f0bf
00000790: ba1a 0862 1fa2 e5bf 988e 1e47 45ad e33f
000007a0: 6861 ea9e 17ce f0bf 9d0b 18e0 06ed d3bf
000007b0: f49d 12ca b777 d5bf a6cb d91d 8169 d4bf
000007c0: 30a3 c6b4 906d cabf be65 780c 3ebd e53f
000007d0: a92b dccb 0b90 f13f 28c0 43f8 6760 e7bf
000007e0: e537 b880 e75d f53f a987 ce61 227c c23f
000007f0: 3850 4c18 aeb7 733f c3e2 abd0 e1e5 fbbf
-0.8754640147331366 0.07751861197794421 -0.28377702660584025 1.6863228005403084 -1.282790531012751 0.7763294502629233 -1.6291834125600793 1.4861648814350545
-0.07883352488122333 -1.7387678318775817 -0.9122410699656254 -0.6423586951489041 1.827118444582116 0.9482914152744605 0.07309242480236869 1.9574182556563016
1.4355324937235485 -0.028673251061586122 0.5335537086745427 -0.736639890615884 1.2191480710755185 -0.5862560339125431 0.23620637280025647 0.04771441729882313
-0.4546784211341763 -2.4596985688544093 -1.3538310455732274 -1.1091379408082094 -0.8046064345944364 0.8521581855999313 -3.0502840903698085 -0.8084570622960006
0.42332436316518146 -0.8816219790007882 0.4617836257517363 -1.0546268605832143 1.0324465947184462 0.14382464631399955 0.7605557134293538 1.1194083407323838
-0.5066067167780791 -0.2997486430261375 -0.31787183869432006 0.24716803126496553 0.4560485403589256 0.2862772696816571 0.9794337296439282 0.052694793666209896
-0.9052811856665343 -0.10712582741510729 1.2814706762103274 1.7532502614764236 0.1819018956785965 -0.1877599604818129 1.1014450515173517 -1.7766727202204846
2.142261126142461 -0.7942190153098496 0.7045292258000537 3.303362278645075 -1.124479103586187 0.15639393091725035 0.6126092208520566 1.548088756189309
0.7073063008692315 -1.1715653588981054 -0.7444129589461047 -1.1055111230675578 1.0363691421103463 -0.005330879773167737 -0.03991494680052075 -1.398819681057109
-0.3155053508742401 -0.6559587584790324 0.21046753612504557 -0.5272302389284499 -1.6127947337680957 0.24653173647309112 0.9497942841515519 -0.5563861571614697
1.1880830596864247 0.439951184233413 -0.04158712660452535 0.2793342300914992 -0.426085315100099 0.012402737919101067 -0.8124469815258186 -0.861110838615966
2.569692229514929 0.14421124828150036 1.3806110537504104 0.6750166537835333 -0.39888295915039457 0.46686244735750426 0.08173244665436193 -0.4363987631352836
-0.08833152442166671 0.3076012580205675 -0.3040663859936184 -1.100525422565334 0.43978822329666 -0.41423271406702594 -0.2147462201272434 -0.8906171193112419
-0.4386310864335668 -2.4921794043574903 -1.4872615142772259 0.8907089225365121 -0.41028947450250147 -1.6962889890322597 -0.9166467989515195 1.5692778913071272
0.8865783957987925 -0.37189215760537253 0.9895186574691712 -0.5184101401049666 -0.9938744747608923 -1.9418867217057993 -0.09176313305484284 -0.4012168447010992
0.21893878144133933 0.631111641454716 0.10230590587719524 2.1095335382588867 -0.07231372237588213 0.6383724099147066 0.6055400969842077 0.411698763342773
0.30179368166811477 0.9337166904205461 -0.8057303486796908 1.814776140489754 -1.2278868815483437 -1.5597296983318754 -0.18845804171650507 -1.3657848224601894
-1.4542509443966993 -0.7995609938416588 1.271523076625675 1.0800809280649497 1.1933523638189643 1.0506949290188432 1.670158620094052 1.4522274389078462
-0.7252127994343563 -1.89662610727723 0.6071322534490226 -0.08229500680964016 1.565414815128668 -0.17203079209257247 -0.8911792786490921 0.9422832607639186
0.948185191892528 -0.24472601278374453 0.37554702418015234 1.271934078928264 -1.0401982345478427 -0.2665407821865023 1.4200611904161315 -0.3954944410148311
-1.8367909623186662 0.42781857518614197 -0.8421101255618815 -0.1038898907407351 -0.4347130744891467 -1.3503448659809387 -2.0647646805427646 -1.157550555021257
0.769635272799944 -0.3207660522782772 -0.15280446792248933 1.3483089881701156 0.043632424822086326 -1.1988775098290532 -1.6878707722852726 1.6068548244459102
-0.9173826062893919 -2.5806326763686913 -0.7328433055235247 -0.7926859872762535 -0.5688228656733886 0.510876791073961 0.8990472133784967 -1.4334043850180813
0.7685951640956876 0.386846304713808 -0.10904126444534983 -0.7396838127265098 1.2723616406681884 0.5274683645053672 0.22503894882363787 -1.2611903035955576
0.19008601011798668 -0.8410922830516263 0.543416403789448 0.08256557934947169 0.49722401458853827 -2.627257858187655 -1.276073092539181 0.20226969520692817
-1.8101496080220782 1.7100092677215022 -0.11184046934175054 -0.8950782330595124 -0.8607540909313168 1.1025354514417907 -0.15735939901393306 -1.3271609491445429
1.7207315519275037 1.8186384195078455 -0.24523360696854263 1.0174060131545113 0.0012199135420146356 -0.37267026456125185 -0.385998736409089 -0.6887156357208642
-0.17043310310114812 -1.515962182710756 0.6792771889216455 0.40498125221216535 0.3935081726051343 0.19062576709640458 -0.19559337776094096 0.6243603456212917
0.1416906761264485 2.615925082456571 1.4171214364690832 0.4648682417312789 0.15924876233155988 -0.4654456539319775 0.2562294294076214 0.44723028298661965
-1.2547010669546839 -1.2389376371260745 1.0175302413632072 -1.4659457836068932 -0.7157141785939146 -0.40683662765088996 0.3239967332886878 -0.9972661328063667
0.7688899538304745 -1.058610628153977 -0.6760403551750962 0.6149011982965531 -1.0503154952658296 -0.31134197124645785 -0.3354320023886139 -0.3189394752036442
-0.20646866633367145 0.679350876194057 1.0976674998553142 -0.7305183266562425 1.3354258564099777 0.14441327834816534 0.004813842828998154 -1.743623557207841
