models/reacher/benchmark/checkpoint_explorer_nes_layer_0.pth (torch_old, 317420 bytes, 3 tensors)

weight f8 [400, 33]
00000000: 7900 9353 581c f0bf 6ba4 aad6 b2e2 c03f
00000010: 79c5 f401 7170 ea3f 2f07 5fb3 1308 ccbf
00000020: d920 0bde c778 ebbf 75a8 0b28 86c0 b43f
00000030: a0b4 871d 1de6 eb3f 6582 4ac4 1eee f0bf
00000040: 3abb eb7b 6080 d73f 27e3 921b ee7e d6bf
00000050: dc1f 9a8f e064 a33f a4f4 c2dd 63a8 c0bf
00000060: 246a be9f 3db5 e33f 84ef 9a79 e6f4 e8bf
00000070: ba6b 5d00 a86c e93f 8182 4c42 97ad ccbf
00000080: a3d3 a12c 0272 b0bf 2a09 e4f3 a166 efbf
00000090: 2f5e e76e 3e09 db3f e859 b97e f636 c9bf
000000a0: c4e2 0546 570c b8bf 4241 063d b5a4 d13f
000000b0: c0ba cdc9 1f6a dbbf 2c90 5b6a a800 febf
000000c0: 2239 2a12 2598 e73f afdf b8de b186 b13f
000000d0: 200f 1d77 ea9d d3bf db68 513a 380d f83f
000000e0: 235b df4e c69c f3bf ce50 d432 873d bc3f
000000f0: 7157 fa4a bbae f8bf 980e d87e 99e6 94bf
00000100: d225 eb16 e8ff f1bf f4e7 74f4 6026 cabf
00000110: 66b6 620a fb67 f0bf f827 68c1 32cd de3f
00000120: c97b e418 ff94 e43f 7ae7 8892 74b2 d0bf
00000130: 759c 74fd 1922 e8bf e3a7 19e0 72c3 e3bf
00000140: 75bc 60bc 5a30 b2bf 935a 1eb7 3fcc f2bf
00000150: f8b7 560d b62b b4bf 9307 34f5 6612 e6bf
00000160: d4a3 3545 31c8 d9bf 69bf 577e 000d e73f
00000170: 92ff d663 1fef f3bf 1b78 3ab3 668c f33f
00000180: 7b66 a816 fc06 f8bf 6d98 0f7a f1ba cf3f
00000190: 763b 451d 2f1b b53f 41df 7ec3 5929 e9bf
000001a0: ea2c 3933 401b c8bf b842 62a1 323c e63f
000001b0: be10 dc2e a502 c5bf c87a 4f6c 5fd0 e03f
000001c0: edc1 d1f3 0983 f5bf 0c24 c8f7 d716 ef3f
000001d0: dce9 d965 fa87 fdbf 9331 642b 240a f93f
000001e0: 5a9c 3df8 1f2e 7ebf 7584 600a f41d f63f
000001f0: ac46 a087 78ea aabf d839 d143 44d4 a3bf
00000200: 8a2e fe45 a0ce a4bf ead0 1564 9305 e03f
00000210: f379 e4f2 a7c1 e6bf d157 7412 42ce f1bf
00000220: f5fe 5bbd ffdb dcbf bcf2 e033 09e3 e6bf
00000230: e993 c718 dab3 d6bf e9ef 1bd2 3d60 dbbf
00000240: 0177 1d0a 3e60 d1bf 485f 5aed c6b5 d63f
00000250: 00e0 eabd 31e9 b3bf da7e 04f4 e3bc cdbf
00000260: d3a5 5d8c 6d82 b7bf 87d9 433c 901f b1bf
00000270: 4352 4981 778c 9dbf 048f 05e6 55de e23f
00000280: 5e8a 1f66 53fe d83f cbbb ebe5 a82a f0bf
00000290: 3cb8 1ac0 2c0d bfbf d9ec c53a 137f f1bf
000002a0: ee2d ae5a e549 d33f 4292 b22f e62e dbbf
000002b0: 11ff 9dad 9eae db3f af1a 7814 e7c6 e03f
000002c0: 8ad3 9ef1 6fe1 b63f 75f2 6e5a b6f3 5d3f
000002d0: 6043 1769 fe52 f43f e0fe dc61 1b00 e2bf
000002e0: 26fa b37d 5824 a5bf 26de 0400 c7bc ee3f
000002f0: 75b4 9069 45a7 0240 5e03 1f51 acc2 bc3f
00000300: b276 236c 9b52 eabf f22e df3d 8040 b9bf
00000310: 65e4 972b 24ec e43f 7d58 84ed d34a edbf
00000320: 7113 30d6 024d f23f d27f afef 3227 e93f
00000330: a4bd b4aa 2fdc d9bf b139 e7e4 6d3a c93f
00000340: 0d38 9ab0 86ba e63f 2901 2de1 7d13 e73f
00000350: 9ff7 8bcf 4971 9dbf 6a9e 6bdb cb62 acbf
00000360: c074 2f0e 4a3f e7bf 9909 ff8c 40b5 e13f
00000370: ba74 1256 f5cb ea3f 9cf0 fe6b 9f80 dfbf
00000380: 6fda 4505 e287 82bf 154c 6ed4 21a7 ebbf
00000390: b92b 09fa 06ed f6bf 8711 3977 f09e f93f
000003a0: 6b15 0b1a a0f8 d7bf f4da 7c8f 210d c93f
000003b0: cfb5 ce8c cde5 efbf 6ef2 7106 57ac e6bf
000003c0: 6622 2a0a bb88 e4bf 2c7a 4860 7172 c63f
000003d0: f609 7a9c 0c29 bbbf 53e6 441e fc62 dfbf
000003e0: 40cc 84c0 acdf cb3f 9085 cc1e c60d e23f
000003f0: 5ccc d16e 69d9 0140 b581 7981 92af ecbf
00000400: 0d1b c955 2c29 bcbf 24a5 7f95 11a4 02c0
00000410: e07b 6f17 20e1 69bf dc0c 84c6 9729 dcbf
00000420: f90f 5226 1989 e4bf 806b 4212 10b8 f33f
00000430: f217 5f52 7c2b bdbf c3b9 123f 5efa adbf
00000440: da81 f1ae 88ad e03f 35ac 9e52 db3e eb3f
00000450: 1d17 2d37 118d abbf 3d0a 3fc1 d250 e33f
00000460: 46da 829e 3641 ddbf 3d15 3c22 6f0b dcbf
00000470: 7263 cc0b 2ce8 e83f 7ef6 987d bb16 f53f
00000480: b97b a83e 9adf 973f 754e 4721 bb2b ec3f
00000490: 560b d5be 55a9 d43f a628 1846 f799 f3bf
000004a0: c6af c432 f789 e1bf aa6c 522b b7e9 d73f
000004b0: 3c16 1c54 3e93 f6bf 1c8d 0237 bc54 d73f
000004c0: d248 406b dc57 f4bf bb4a 1b33 8a77 dabf
000004d0: fcb8 f7f4 afaa e1bf 5e4a ebed 4a2b ef3f
000004e0: fdb4 892b a574 f8bf ffed 7c90 47ea d3bf
000004f0: d431 dc09 c47b c4bf 7db6 81ee a6cc fe3f
00000500: 5da7 e92f 83d1 e73f c04e 6a5f fe44 933f
00000510: 6024 00a9 7215 00c0 fa3a 06fe b19f b43f
00000520: 1c8c d133 9b58 d4bf 8cd2 d4d1 8117 d7bf
00000530: 1301 fac3 f67c f53f 19d8 11c0 1ceb 86bf
00000540: c41c 0bca d924 e9bf d4a6 032f d58c dabf
00000550: 4e5e d816 2a50 f53f f9f7 69ab 194e c73f
00000560: 10c2 949e 665f f4bf 0a82 0aed 81cb b03f
00000570: 7e88 109c 2410 ebbf b6da 55ff 9e8e e23f
00000580: 24cf 7257 f224 debf 8863 6f36 8a6d f9bf
00000590: 602e 1a45 e44a ef3f 9c7f ea1a f783 f9bf
000005a0: ed7d 5615 0399 c53f 6cf8 3e76 298b e13f
000005b0: 58ba 1212 57ae c7bf 0e22 4d11 e0fa e5bf
000005c0: e661 08ac 19ce bebf 6cb7 8035 b7d3 babf
000005d0: eeb1 99b3 c176 d63f 5286 c708 648d e7bf
000005e0: 4a78 35e9 550b d6bf e27c a26f e96f f4bf
000005f0: 8364 7549 83e3 da3f f34b debe 4ddd da3f
00000600: 0165 75b0 fdbd 0540 786a 33ad 5053 e3bf
00000610: 02fa 28d8 7dca abbf 29a2 bc9b 90cb 04c0
00000620: 3190 cf8a 7104 b1bf af68 5d4e f6dc e33f
00000630: 0b58 44bb 712d e03f 10df 9f5b 8714 e33f
00000640: 9caf 6d69 53dd da3f 1eb5 da7f c511 d4bf
00000650: 2b7f 5c31 6a99 dcbf e16b dccb cb23 f13f
00000660: 7442 95b2 e028 d03f 8add 6f38 4aa6 c03f
00000670: 47a1 4f7b 9aa2 d1bf 9932 c666 3410 ebbf
00000680: 5d40 8f00 0518 a3bf 4f83 f86e a3c6 c7bf
00000690: afa7 5d2e 3f62 eabf 960c 1745 7780 de3f
000006a0: 0348 c1b7 6edc cebf 5549 b376 1439 f0bf
000006b0: 2562 125d 7d87 f13f fc6e 4925 32f9 b9bf
000006c0: 38fe a149 e4f2 c4bf 4b52 0f88 1d3b f1bf
000006d0: 9601 e3c9 e63a af3f 255e e7cd 3011 e6bf
000006e0: 2203 d9a7 f5f1 f3bf 9b98 b2e5 1fb8 d43f
000006f0: 4251 6c08 ab61 e53f ff67 f193 7f0b fbbf
00000700: 2e19 e8d4 566f e63f 9058 8097 8e66 0340
00000710: d2ce 6dd2 f91b d6bf 487b 1cfd 0948 a6bf
00000720: ca85 3edb 8259 02c0 ca99 8d88 b9f3 b3bf
00000730: 00dc 81ea 902f edbf c335 95b3 9e69 e2bf
00000740: e3a3 0d70 b4df a3bf 8b5d a140 d9f4 e73f
00000750: 2359 b291 f59d f2bf ee94 dcfa 157e e5bf
00000760: a3ab 4f08 1c46 f93f 585b 3ddb 2c2b c4bf
00000770: af31 1970 5488 f0bf 6387 55b9 04c8 a5bf
00000780: b524 92e0 dea2 e6bf d2e6 2e53 54d4 c33f
00000790: 2ed5 a142 66a6 df3f 9b62 4141 43b9 a0bf
000007a0: f20d 4326 ae34 ed3f fd05 4efb dd19 d6bf
000007b0: ace1 1a9d e64d e7bf ede3 34d6 b841 e33f
000007c0: a1b7 f7d6 2998 e3bf a3eb 90fe 22e8 e1bf
000007d0: b2b9 41ee 3b3a f0bf c60c 9a60 8574 dabf
000007e0: 0364 e0a0 4e3d b9bf 5192 f0f9 f86f bb3f
000007f0: 4514 f10f 6c01 f93f fdad c9b6 9c96 03c0
-1.006920172178097 0.13191829187170198 0.8262257612424683 -0.21899648912772693 -0.8584937416826747 0.08106268384622857 0.8718400551566852 -1.0581348102206445
0.3672105035938561 -0.3514971989894086 0.03787900689081855 -0.13013885811043224 0.6158741111751778 -0.7798950553037547 0.794513703072304 -0.2240475724911626
-0.0642396315541434 -0.9812783969394208 0.42243920164534904 -0.19698983371445355 -0.09393830737634362 0.2756779762212497 -0.4283523054827292 -1.8751606134983474
0.7373223643096802 0.06846152961304484 -0.30651342041186247 1.5032274511382215 -1.2257750588375493 0.11031384459448931 -1.5426590851615993 -0.02041091763204736
-1.1249771971946427 -0.20429622589455187 -1.0253858953177768 0.48127430808437976 0.6431880460912619 -0.2608920508388263 -0.7541627836516357 -0.6176084877927192
-0.07105033015317182 -1.1748654511517642 -0.07879197908070512 -0.6897463597417633 -0.40284377821677464 0.7203371493942373 -1.2458795452111855 1.2217776299580752
-1.501705254084668 0.24789255580907668 0.08244604553804699 -0.7862976854585001 -0.18833162785663343 0.6948483612087193 -0.16414322650974172 0.5254361262739957
-1.3444919132417639 0.9715385283935816 -1.8456977823794807 1.564975900170883 -0.007368206864931082 1.3823128133156193 -0.052570120387952585 -0.03872884109351887
-0.040638931793265234 0.5006806330480036 -0.7111396545404304 -1.1128559800031221 -0.45092767231106673 -0.7152143491035399 -0.35472729129679564 -0.4277491142127006
-0.2714991663723226 0.3548447912121344 -0.07777701269776571 -0.23232697882575942 -0.09183392216586776 -0.06688786956133273 -0.028856150880829167 0.5896405689822761
0.3905228135392117 -1.0104149800570095 -0.12129478158996759 -1.0935241981340396 0.301385248713557 -0.42473749788249304 0.43253294901659084 0.5242801093853212
0.08937739991126939 0.0018281250756750054 1.2702621560203724 -0.5625130568878056 -0.041292920441254474 0.9605441093799001 2.331675362328094 0.1123454759645148
-0.8225838768082296 -0.09864045630018461 0.6538258410865977 -0.9153842581752226 1.1438015333853537 0.7860350304945263 -0.4040640990305866 0.19709561993518102
0.710269303251836 0.721129360004885 -0.028752473156593458 -0.05544125607940205 -0.7264757420595274 0.5533755067665879 0.8373972588630274 -0.4922255091330585
-0.00904823855010514 -0.8641518734970101 -1.4328679816269256 1.6013035447259385 -0.3745498899773653 0.1957132292388547 -0.9968021154542671 -0.708537590587708
-0.6416907499816034 0.17536751939128814 -0.10609511203987396 -0.4904165549847665 0.21776351356820278 0.5641813851872701 2.2311581285262445 -0.8964321640778993
-0.11000325292944187 -2.3301116637782275 -0.0031591059482560663 -0.44003862749396006 -0.6417356251190532 1.232437201810825 -0.1139447880842395 -0.05855078239379765
0.521183339773468 0.8514229406040444 -0.05381063269173423 0.6036161207524128 -0.45710530738452737 -0.43819788306457835 0.7783413153111793 1.3180498987343578
0.02331391341624187 0.8803382539721968 0.3228353847118134 -1.2250893343030298 -0.5480915061539171 0.37363986235295477 -1.4109481130157198 0.36454682704989394
-1.2714504422661332 -0.41354613295440473 -0.5520858559155211 0.9740347525460711 -1.5284778309535902 -0.31117428884655846 -0.16002703172161026 1.9249638859431848
0.7443252502246015 0.018817877362905078 -2.010472603146397 0.08056175662771273 -0.3179080968895407 -0.36080976001111575 1.343008771451484 -0.011190628634931742
-0.7857483812485033 -0.41484574881779435 1.33207138942625 0.18207093114682474 -1.2732912249158552 0.06560527836928301 -0.8457205818306333 0.5799098002451817
-0.4710050443638798 -1.5892431379672605 0.9778920507100786 -1.594718079701102 0.16873205701720853 0.5482375440112839 -0.18500793821790995 -0.6868744218746217
-0.12033234071748886 -0.10479302459927248 0.35099833048914675 -0.7360096141312147 -0.3444418694906558 -1.2773222313624548 0.42013628171623213 0.4197573055218406
2.7177690301729176 -0.6039203055218669 -0.054279263149954474 -2.599396912283073 -0.06647405280051612 0.620722916656879 0.5055473954732873 0.5962559499302831
0.419758656461221 -0.3135846851899532 -0.44686369724694214 1.0712392772027146 0.25249497833014023 0.1300747657366908 -0.27554952661605053 -0.8457281119641095
-0.03729262954550514 -0.18574946325773076 -0.8244930177290736 0.4765909361560231 -0.2411020657769428 -1.0139355313045446 1.0955785403840619 -0.1014586773903225
-0.16366246791220518 -1.076932460292613 0.06099625791967182 -0.6895984670217713 -1.246572166113943 0.3237380736485506 0.6681723751558268 -1.6903072146437805
0.7010912092526149 2.425076659778888 -0.34545751142216574 -0.04351836409317983 -2.293706620069064 -0.0779376943952236 -0.9120564060420975 -0.5753930575826235
-0.03881610744321742 0.7486387502967075 -1.1635642710949206 -0.6716413402215531 1.5796165775925395 -0.15756760315954454 -1.0332836512417136 -0.04254164469126811
-0.7073816667699676 0.1549172788780227 0.49453121668860234 -0.03266344234061088 0.9126806971839285 -0.3453288034580451 -0.728259379239764 0.6017727073404991
-0.6123246382319288 -0.5595869991296819 -1.014217310610189 -0.41336187776341793 -0.09859172275209009 0.10717731573147062 1.5628471968386901 -2.4485410957620375

sigma f8 [400, 33]
00000000: 53b4 4d35 ca10 bdbf a865 985d 0a74 33bf
00000010: 5315 d796 8d13 c03f 8cbf 47d0 8bf5 a9bf
00000020: 3418 7346 6134 65bf 51cc 4ec7 1b4c cd3f
00000030: d152 f479 92a4 8cbf b84f 4166 683e b23f
00000040: f107 213a 7fd2 babf ad9a 5ed7 9979 a93f
00000050: eecb 7a47 75cb bbbf 7d3e 560d 501a 6a3f
00000060: 58e5 3fcb 37f0 a2bf 6fb3 d788 e7e0 76bf
00000070: c84e 0813 d2a2 d03f fb42 a905 e65f 97bf
00000080: 15e8 f141 15d2 b1bf 8a64 4b79 c866 903f
00000090: a3d3 1eb2 8704 a0bf 2cae 2bbf 6e38 a9bf
000000a0: ca5e 6df9 f40f aebf 3997 80a1 63ab b13f
000000b0: 53e1 b122 978b bcbf 3762 dd8e 00f4 a3bf
000000c0: e76d f4c7 c4f6 c13f f35c d407 5f9e bd3f
000000d0: 66bb c3a2 f4c1 af3f a11a d056 d835 b73f
000000e0: 07ba 19a3 eac0 a0bf 9cc4 20b0 7268 913f
000000f0: 56ac e19a 7d2a babf 9cc4 20b0 7268 913f
00000100: e337 2359 fb69 a6bf 30fe ea86 789f a23f
00000110: f03b 0d8f 60e8 bbbf 8a9d b53a 26a1 afbf
00000120: 114a 1235 7751 703f 345c eb32 ff61 a4bf
00000130: 9ec4 ef31 cc0b 9abf bd69 e9e8 c1c5 96bf
00000140: df0c b381 2f3d a4bf 490d 715e 67ca ba3f
00000150: 845d 3e9f 0f18 a63f eef7 60a7 d609 8d3f
00000160: 6749 051c dc74 a9bf 3d2c 87ac 94c8 b53f
00000170: 01db 8860 dd7b b73f 555e 739e 49e3 d43f
00000180: ffd1 6c8f e05c b83f f67e 9331 dbe2 b9bf
00000190: b177 1cb0 c804 b9bf 2e2e 5fb0 ec3b b8bf
000001a0: 3b64 3582 c1ff a2bf 109e 4480 1427 ad3f
000001b0: fac8 12b1 57ff a8bf ef68 c6a9 bfe9 b8bf
000001c0: e008 231b 8f52 c03f dc26 3d70 b94c bb3f
000001d0: 51b0 c11e d1a6 b1bf 7a5b ef75 55ff b23f
000001e0: b088 8903 5e48 abbf 3cac 502d 27d8 873f
000001f0: 9cc4 20b0 7268 913f b00d 224f 86ac dd3f
00000200: 9cc4 20b0 7268 913f ba46 d3d8 9762 9b3f
00000210: 0772 1952 06e2 b1bf 55ca 441a c9b7 a53f
00000220: 5a25 7848 c8e9 bdbf 43e1 05a1 d7c9 823f
00000230: ee05 6f74 3288 adbf 99dc ed92 c29c a6bf
00000240: a7a2 995d 408d a13f 272b c53b 8ac3 a93f
00000250: 1638 8734 27d1 ae3f 2a21 e10b 776d 993f
00000260: 9c04 462f c1ef 9abf f9e9 8a28 e9d1 c1bf
00000270: de90 e547 6998 b13f 2df7 0250 364f a8bf
00000280: 3846 9497 6866 bd3f 22a9 88c6 d4d9 a0bf
00000290: c011 243a 4063 c33f 3f50 2f7a cc69 c9bf
000002a0: dee4 2c3c 8a9c a8bf b809 6d0c e3ae 13bf
000002b0: 2588 15db 3be4 b23f e5ef 265f ff0d b3bf
000002c0: 01a0 6fa7 5422 b9bf 5035 7da9 e376 53bf
000002d0: 6d0d 176f 1d4b b93f d63a de98 3078 bc3f
000002e0: 5596 4a1e 6484 b0bf 996f 6b7e 73bb c23f
000002f0: 72c4 3289 75fc b3bf 9cc4 20b0 7268 913f
00000300: 588c cbfe 3df6 d93f 9cc4 20b0 7268 913f
00000310: 26bb 2dee 48cf 92bf 97a3 c7be f7e8 b43f
00000320: 92b2 b29d 28d0 c73f a3d7 8ff8 09c7 c53f
00000330: bde0 97bc e7cc b93f 01f3 9588 5dcf 7fbf
00000340: 5995 2032 20be b43f bccd 433c 68db 9ebf
00000350: 580e ba0a ab66 a53f 0603 57f3 0a3e b5bf
00000360: ab0f 0fa5 afa5 d7bf f153 2258 535e bebf
00000370: a4c5 05b1 5de1 c3bf 59ee 4cee ff7a c1bf
00000380: e9d3 8282 b224 b43f 4903 cb87 9a31 cbbf
00000390: 6593 8279 4bd1 be3f ad58 ca6c 82dd a73f
000003a0: a13c e172 d9ee c53f c4ee 16f0 2aa1 babf
000003b0: 4f31 f6a3 8338 9fbf 8794 e4cb 4f24 a7bf
000003c0: 9ff2 7853 39f3 c93f 3af7 11dd b837 cabf
000003d0: ba2b c4f1 0ffc d33f 8b06 4acc fdf5 c53f
000003e0: e1ca 85b4 3d8b 9cbf 2ba9 5824 bb0e bcbf
000003f0: dc75 a0fb d636 cc3f 345e 2e29 8c6e 80bf
00000400: 9cc4 20b0 7268 913f 3523 c4c2 1e37 c0bf
00000410: 9cc4 20b0 7268 913f 2526 0c17 d0e4 a8bf
00000420: 43fc 2d45 2cb9 92bf 7c1d c834 b78d c83f
00000430: 4893 beb7 b60b b03f 076e 4bb7 080b b0bf
00000440: f0be bfa5 4fe9 b03f 12d2 2454 f963 d63f
00000450: dafb bbd3 2a71 cabf 8a50 7a20 09d4 ac3f
00000460: 79ee 2b4d 42dd abbf 81e6 48d5 aa84 a83f
00000470: 721b e975 b658 89bf 9265 2612 22ed c93f
00000480: 4c71 2bbc ec74 c0bf 4cf6 3f6a 6bd5 bb3f
00000490: a97e 4554 9392 9bbf fdc1 527b ce85 6c3f
000004a0: 63f9 f96d 34af a1bf 97b5 7ad7 8e97 8bbf
000004b0: d311 d698 6d7e c33f 7b18 6fb5 65f8 b1bf
000004c0: bd27 7fc3 77d4 953f c3b8 9b04 70fa 883f
000004d0: 5263 80e5 c5cf ccbf 3d8e 523a a409 a63f
000004e0: a0d5 2062 9f5e b83f 54e5 34ee 1f39 c7bf
000004f0: 52a5 aedc e96b b93f d174 5522 645d 85bf
00000500: 1fe4 e3e6 956c 9dbf 9cc4 20b0 7268 913f
00000510: 6c19 b8ba e757 e73f 9cc4 20b0 7268 913f
00000520: 1583 8714 455d 92bf 52e1 94bf 4dfc 923f
00000530: 19ec f6c3 f8c8 b63f 31ed e7cb c849 a9bf
00000540: 5fbd befa d68f acbf 9179 d3d4 1aa4 b43f
00000550: f7e8 31d1 8cc0 babf 9809 97a9 f0f0 b53f
00000560: baff b7fd 90c9 c93f 75b1 feca 089e b03f
00000570: 6218 f75b 9476 a93f 616e 1add f4e8 c53f
00000580: 49a3 18fa 5b4b d83f 4606 de7e ae75 d03f
00000590: 7e10 d7a7 bd7c 953f e9aa 8819 e8f4 d4bf
000005a0: 9069 a96d 2e5d 963f 0a35 f1b8 152b b1bf
000005b0: 201c a05c 8947 c7bf 8194 e7b0 9805 97bf
000005c0: 2717 f13d 1454 c33f ae82 2af7 cf6c 9a3f
000005d0: 44fc 0b1f 7662 963f 0cbd 7b8b dc71 c83f
000005e0: ab23 0ba5 b00c b5bf 4697 34bb ddb2 bd3f
000005f0: a529 409e c76b 8dbf 46eb afb9 62ef 9fbf
00000600: fe29 21d1 72ad c1bf 5166 b7b8 61b2 c33f
00000610: 9cc4 20b0 7268 913f c7e7 79a0 8a7c cd3f
00000620: 9cc4 20b0 7268 913f 65bf f02c f33f 95bf
00000630: 92a2 f464 0499 babf 2dde 6f6d 7f02 a93f
00000640: aafe 7f4a ea37 b4bf bc25 de7f 6b37 a73f
00000650: 0d3a 73d1 8d93 c33f a012 9140 68fa d2bf
00000660: 7a56 67d1 95a4 aabf 193a d79d 388e c33f
00000670: e899 e881 e2d8 ca3f 3f8b 99ca 7c18 be3f
00000680: 83d1 f15c 9de7 cf3f 6379 0944 8e75 a9bf
00000690: 21dd 81cd 057a c53f c799 aaee 6993 933f
000006a0: c4fd 72c1 133e a13f 7ba9 3380 a00b a13f
000006b0: 43c8 4a06 1394 c53f 475e 622f 5e8e a63f
000006c0: e1b4 f9c2 d93d c9bf 5e71 b304 ab71 a53f
000006d0: 3e4d 79d6 1ad7 af3f f3ca adde 1e4b 46bf
000006e0: a811 9fd0 5b22 a0bf 4572 d281 42b6 aabf
000006f0: 5cb4 19f5 f7b8 b1bf b230 1999 c5fe ba3f
00000700: 98b0 b870 9ecd a8bf 5857 d510 7d79 d1bf
00000710: e9bc 7877 cb94 b93f 9cc4 20b0 7268 913f
00000720: 7ece f792 cc43 d43f 9cc4 20b0 7268 913f
00000730: 862b 9833 40c5 6c3f c5b2 f01a bd14 90bf
00000740: e303 4ff6 efda a3bf e357 5404 821f c1bf
00000750: e496 fdd0 a5c8 bcbf 4742 6a75 4371 953f
00000760: 820f db28 b5d5 cd3f d302 4255 c53a bcbf
00000770: ffbc 3d54 8283 d0bf 61ed 8a2a 5148 cabf
00000780: ed7a 8d7b ef02 b83f 484d 57a4 2e67 7d3f
00000790: af16 bdb9 17a4 983f 8729 8912 685d 91bf
000007a0: b83e 36f1 fac6 98bf 69a3 4ba1 8506 ce3f
000007b0: 3c7a 05cd 23e1 b33f f410 1217 ea43 c73f
000007c0: e82f 67d8 79b4 c3bf a94a 36ba b124 973f
000007d0: 737d d454 4440 cc3f bc35 9300 30f3 c6bf
000007e0: d32b 0868 07e6 b43f a849 b4ce f6b1 a9bf
000007f0: 1eba a2a4 ba92 a4bf b417 7882 4507 73bf
-0.11353744317394047 -0.00029683354441231236 0.125596712734629 -0.0507014934299824 -0.0025884532838942546 0.22888514739824697 -0.013985771509888252 0.07126476761305767
-0.10477442902723035 0.04975586656592177 -0.10857327456578478 0.0031863749997638733 -0.036988967476598134 -0.005585579330255593 0.2599377809394636 -0.022826761336832906
-0.06961186275466986 0.016017086413601812 -0.03128456162759299 -0.04925867160440264 -0.05871549172178232 0.06902144139220646 -0.11150498005907154 -0.03897096389727433
0.14034328235071244 0.11569780293608627 0.062026638859484604 0.09066536063628884 -0.03272183648083531 0.017 -0.10221085578238961 0.017
-0.043777327185679636 0.036372915715670806 -0.10901454441521685 -0.061776346842459764 0.003983941701465558 -0.03981015678953562 -0.025435629413497744 -0.02223875984268785
-0.03952930887455763 0.10465093665793747 0.04315232104198244 0.01417892168330678 -0.04971969453858343 0.08509186946973642 0.09173377615739399 0.3263725325936993
0.09516719342793321 -0.10111780128817913 -0.09772924708928944 -0.09466437631561384 -0.03710751261196107 0.05693878236553129 -0.0488231090215709 -0.09731672186754613
0.1275195009712382 0.10663947096068277 -0.06895167351621125 0.07420858506462294 -0.0532864932363436 0.011642747946174585 0.017 0.4636550686629688
0.017 0.02674329052826494 -0.0698551130712489 0.04241779752409928 -0.11684848565359598 0.009174046136408825 -0.057679726327034206 -0.04416473430222218
0.034280787874029266 0.05031997661224912 0.060189461862691626 0.024831638431607995 -0.026305216322275102 -0.13921846847172484 0.06873186116496607 -0.047479340807952
0.11484388065971352 -0.03291191981800724 0.15146639670287065 -0.1985412212949331 -0.048069305272699245 -7.508526605896112e-05 0.07379507158978578 -0.07443233559655445
-0.09818009460252598 -0.0011880133879061568 0.09880241357955351 0.1112089513028239 -0.06452012767348354 0.14634555504642036 -0.07807097053115955 0.017
0.40565442926726325 0.017 -0.018368854081411666 0.08167980582915245 0.18603999805545307 0.17013668667612789 0.10078285555198625 -0.007766118398077949
0.08102608894167442 -0.030133846929812455 0.0417989206880775 -0.08297794762530594 -0.3694876777556099 -0.11862679387770904 -0.15531512397460034 -0.13656615386740859
0.07868495641999086 -0.2124512827922678 0.1203810855536865 0.04661185815818789 0.17135160550467268 -0.10402172433435469 -0.030489022142817842 -0.04519891132285019
0.2027351052837689 -0.2048255042499763 0.31225966081609224 0.17156956172043566 -0.027874912398554556 -0.10959977757798771 0.22042357717957273 -0.008023352629421422
0.017 -0.12668213377062335 0.017 -0.04862070351925877 -0.018284503672017626 0.1918248183940071 0.06267873750637165 -0.06266836619345649
0.06606004520994779 0.3498519250599951 -0.2065785917147583 0.05630520364243903 -0.05442244712864137 0.047887171302545724 -0.012376237367005525 0.2025492275832162
-0.12856826007817757 0.10872527450552488 -0.026926328676721543 0.003481772694236661 -0.03453983156667808 -0.013472667647273435 0.1522957798262171 -0.0701964920000097
0.021318312937900197 0.012196421757348813 -0.22509072977188765 0.04304230892128345 0.09519382615766014 -0.18143080836470438 0.09930287969350118 -0.010432035730156749
-0.02873453351728383 0.017 0.7294806143625414 0.017 -0.01793392122079059 0.01854058725186409 0.0890040853909543 -0.049391055003037095
-0.05578491030552856 0.08062904067944589 -0.10450058085726598 0.08570770397549266 0.2014638174878181 0.06491141277246533 0.04973281500456107 0.1711717681508729
0.3795995657297238 0.2571827162683785 0.020983661049982498 -0.3274479150156098 0.02183983368227299 -0.06706367268744287 -0.18187062285162003 -0.022482286260033128
0.1510033895921705 0.025805711232012633 0.02185997547621478 0.19097477732382406 -0.08222488431341783 0.11601053066678188 -0.014365729824949389 -0.031186621268698
-0.13810572825816786 0.15388127822261535 0.017 0.23036320529700857 0.017 -0.020751762025781235 -0.10389735665070024 0.048847181424147436
-0.07897819823119315 0.04534469543348105 0.15294049002700696 -0.29653364472714294 -0.05203693562695562 0.15277774531428248 0.20974379866784365 0.11756114908488956
0.24925581968603802 -0.04972500401048554 0.1677863362744825 0.019117026512185633 0.033676736225511955 0.03329183163608015 0.16858136946899735 0.04405493095799478
-0.19720003147396084 0.04188284332642199 0.06218799465264134 -0.0006803417903554473 -0.03151213571212291 -0.05217178187124153 -0.06922864660164535 0.1054500101828946
-0.04844374776834676 -0.2730400719059296 0.09992667834079651 0.017 0.3166381297334978 0.017 0.0035120252548543366 -0.015704111832905782
-0.038779734436964274 -0.13377404414558133 -0.11243664123830005 0.020939878503272415 0.23308434004695405 -0.11027177173128715 -0.258026678339732 -0.2053319413879349
0.09379479185507096 0.007178480334420208 0.024063463889681 -0.01695788014539226 -0.024196549389272376 0.23457403541331281 0.07765411143689332 0.18176008345120176
-0.15394518915707 0.02260091494606323 0.2207112707337547 -0.17929649379804669 0.08163496293870702 -0.05018588326688028 -0.04018195399963907 -0.004645606538820891

noise f8 [400, 33]
00000000: c34a 4436 3df8 b93f 480e 3d84 5afd d93f
00000010: 70b4 a6cc 3b95 f03f 0c81 c3dd d8d2 d1bf
00000020: 68bc 07b9 6b19 f23f bc04 a219 c1df f4bf
00000030: 78ee 9082 596c d13f 7671 9c25 a358 b93f
00000040: 4846 7018 a34d f4bf 5f80 061e dee1 cd3f
00000050: ea8c 8144 3e50 afbf 8d87 ddea ae28 bebf
00000060: 935c 1b2b 0339 e83f 5932 5f58 4632 f53f
00000070: 8c92 23e4 e37e dc3f 8db3 ba27 d0f2 edbf
00000080: 1881 7427 2d14 f4bf 7016 d90d e19e 8abf
00000090: 4116 df1a 0c9c e83f fa6b 03a5 e258 f4bf
000000a0: 1f18 d058 399b f5bf 2521 6840 bc76 cd3f
000000b0: 54a1 6ab6 d84e f3bf da0d 2b46 0fdf cf3f
000000c0: 9f5d 7a02 dd05 dcbf 06a9 ea2f ca18 ef3f
000000d0: f7ec 0bd4 76e1 dbbf fe72 d88f c971 f13f
000000e0: a0c3 ff04 3963 e7bf 1b90 f201 569f d03f
000000f0: 9f5d 425b b13c e63f c465 e886 ca7d d03f
00000100: 8745 bf90 d33d f93f 1cf7 5867 372c acbf
00000110: cc71 d158 2929 cf3f 5149 114a 28ce f9bf
00000120: cd08 f9f2 fcca e0bf 8cf4 44aa b41e e3bf
00000130: edba d853 e2cb e4bf e63e 9c62 3a6e f5bf
00000140: 9ee4 f096 b204 f33f f900 c221 4de5 d83f
00000150: dd88 2159 47aa dbbf 2bca 41c8 210b ea3f
00000160: 75a1 f584 fb37 b13f c590 d09d 2acd de3f
00000170: 31ef 4285 ffe8 00c0 8b0f 4bde 91a7 c43f
00000180: ce9f b74d bbfe d9bf c2fb 5eb6 110a f73f
00000190: 28de 1e57 fed6 c23f fc59 8b63 ac8d c33f
000001a0: db62 6be8 e639 cbbf 5ae1 e223 aa86 dcbf
000001b0: c833 ab5c d6d2 d33f b8f6 da31 8ef4 f6bf
000001c0: 7bc3 c875 790b e4bf a5ca 11f5 a9dd f7bf
000001d0: bb60 7841 d028 01c0 b8d0 f4ba f2b2 ea3f
000001e0: 872d 698e e6b6 d6bf f365 251c 3e92 dc3f
000001f0: e577 c3cf 3850 c7bf 4076 fb8d a006 db3f
00000200: 64e9 2ad2 0148 e03f 0e7d e23c dd2b e5bf
00000210: 62b7 fb00 ed68 d03f 7478 424c 03ed e93f
00000220: 5137 6740 47bb dfbf 788b b1db ca8b f43f
00000230: c2fe da9f fe09 c43f 5efc f68b 8f23 fdbf
00000240: 4a99 9dd7 720a c33f 94f9 7c7b 84ba 06c0
00000250: 5d9e afcf 6bdd cb3f ac76 8b35 d840 b13f
00000260: e49a 797a 9548 d9bf 3059 4803 35fe d63f
00000270: 84a5 4270 a3b3 0240 4646 a0f8 694e dc3f
00000280: ac26 2187 4ec7 e8bf 5bab f923 749c 0040
00000290: a2ec 3008 8677 cabf 601f 93c1 43e2 e3bf
000002a0: 6ec3 7b26 6ee4 e7bf b884 19cc ce31 f93f
000002b0: af79 8e31 7f3f d33f 5f7b 3fa9 9f70 d13f
000002c0: 9eb4 9eb8 37de d03f d066 493d b924 e4bf
000002d0: ed03 afbd 699d c0bf 0662 ef50 99fa fcbf
000002e0: 24d2 d1cc e060 fd3f 465b 0199 ff5f c4bf
000002f0: 7a8b 913b 4bfd f1bf 72b2 612a acb3 d23f
00000300: 8ff3 2e0d 1338 ea3f cc52 b7a2 3964 f9bf
00000310: 74ab d7c7 f641 fdbf b3a5 2344 3dd9 f53f
00000320: 8655 048e 61a5 e7bf 0f29 4336 262f 913f
00000330: 71b7 ad03 af6e dfbf fa3e 4075 4715 ed3f
00000340: af01 d33a 8068 d23f d456 91cc 86d4 c6bf
00000350: 6996 b297 ae16 e93f eade ac60 f845 ccbf
00000360: 5d92 5c71 4218 d2bf d071 a7db bd90 00c0
00000370: 50c4 d883 ee5d f2bf c3c1 3b4b 834b eabf
00000380: 31e7 19e3 3ce1 c6bf 7bfb d0e5 2027 e93f
00000390: ece9 d05e f4dc f13f 1e63 59d5 effd df3f
000003a0: 926c 7aa8 e1d1 eb3f ff28 2c0e 5e35 e83f
000003b0: 43aa 13aa 7708 853f ca6d e18c 9fdb de3f
000003c0: 4f01 f05c b14c eebf d84f 32d1 547f f13f
000003d0: c644 80f0 95d1 e43f 899d fd6e 957c cebf
000003e0: 14f2 620a 065c febf bf48 3cad c357 8e3f
000003f0: c973 94b8 1959 e13f e2ed 428b ebaf e03f
00000400: 2fd1 3fab 5464 f0bf 99e5 d3a6 230e a9bf
00000410: 80e9 4f0c 9573 fabf abf1 d77d 0599 b03f
00000420: 8c88 10d4 9a54 f63f 72e6 54e0 1f64 cfbf
00000430: 6e4a b8e1 4e9b fabf a270 2115 4dbc ec3f
00000440: 2044 bc2d 7a1c f2bf 00de dfc1 cb33 dbbf
00000450: 4640 c4d6 e89b cd3f 3e38 ec58 c323 d3bf
00000460: c3ae bd7d 3b04 bf3f 5dcf 88db f76e f6bf
00000470: bc2e bc7c 3a4d dfbf 4011 4906 a61b 8bbf
00000480: 4cc7 5a12 ac90 f7bf 616e 47fd af9b f0bf
00000490: 4cba 7a85 c68a b33f 2d33 0364 8953 d7bf
000004a0: 7e0b f153 7454 ee3f dd5c a1a0 5ad8 eebf
000004b0: 1b78 1572 65c1 cfbf a7e8 2581 0964 d73f
000004c0: a415 d6d8 ec0c bf3f 4d70 b7f0 5eda e2bf
000004d0: dcbd 1c2c 2960 df3f 780e e4aa fef1 f43f
000004e0: 678e 8c00 b051 ca3f 6a6d 6f62 50fc e03f
000004f0: ce47 6508 6d0f ddbf c593 d041 e4a1 be3f
00000500: 26e9 68a0 ded6 d33f dfb5 2ce4 035a b4bf
00000510: 68f4 106c 5185 e43f 2e5c bd87 4c1c e6bf
00000520: c9b6 b2d9 ef63 f03f 402a ceba 57ed ee3f
00000530: 2b10 d14d 37bb f53f 6818 4a4b ce1e e1bf
00000540: 6659 140f 498a eb3f 687d c582 fae3 f2bf
00000550: 6777 e571 2b73 c03f 1d67 e229 5f1f da3f
00000560: 93a1 748c 1a31 ed3f 14bf 1ba1 1ba8 febf
00000570: 0a35 bef4 a6bd 553f d14b a523 8853 f0bf
00000580: a468 1ef8 05e9 f63f 478a 3d00 c9eb f0bf
00000590: 9095 f242 73c5 b2bf 1f74 51c7 6af4 c3bf
000005a0: 4867 084e 155f febf 3073 df38 e237 b83f
000005b0: bb12 fa5b 2b49 efbf 201b 62e7 6b4a e93f
000005c0: e4f5 20e3 42a5 c8bf 7674 68bc 29c5 eebf
000005d0: 9e62 ee46 7ffa f0bf ac43 69d3 d653 c5bf
000005e0: ca88 251b 8ebb c4bf ec00 1ba2 7ab2 a2bf
000005f0: 2c88 1505 d8ff dcbf 1c5f cb59 c6f9 f93f
00000600: c3d6 7373 f3f1 f03f d4ec 18e3 1734 febf
00000610: 6a79 d568 5f6a f53f b461 8de6 6599 f0bf
00000620: 59a3 7dfe fe5a f3bf a084 9ea3 4d3d f93f
00000630: 9b7f be6a c92d d3bf 3aa2 13a3 4be5 c43f
00000640: 4e7a c938 a1ee f33f 4995 f43d b105 d43f
00000650: c72e a253 c421 e43f 9eeb 23a0 50df f9bf
00000660: 3580 7882 bd25 cfbf ed3c 6d5b 03c7 dd3f
00000670: 4dde b5b4 494f f63f d56e bdd9 081e f2bf
00000680: 8f0d 1b83 155c e23f 56e5 b490 2cdb eb3f
00000690: b942 5a34 65da e9bf b414 cd19 8d40 cf3f
000006a0: cbea bfb2 4b06 f43f b999 de4a 205b dbbf
000006b0: e78a 96d2 de29 f2bf 9549 e21c cc98 ec3f
000006c0: 2806 18cf 9445 b43f ad50 9462 56b3 e3bf
000006d0: 0e71 37bc feb1 df3f 977f fe56 d949 e7bf
000006e0: 25f1 98a8 d5fa f03f 1f38 9983 989f 02c0
000006f0: 85c6 0743 6197 e43f 5360 7019 0830 e8bf
00000700: 3890 6cd7 679b c23f 1128 82e3 eaa6 d1bf
00000710: a6a4 9181 43b7 e9bf 3bb7 0d01 a0aa d73f
00000720: 6477 6e6e 8f5b e93f 1500 c11f 09eb cdbf
00000730: 2190 232b ea46 e63f 984a 7379 6740 00c0
00000740: 5bf7 e456 415a f8bf 0526 f710 aeb2 f93f
00000750: 2509 8165 b198 ffbf 3f08 97f5 6fef c4bf
00000760: db29 3f66 350f 01c0 05d0 e8f1 ae72 e0bf
00000770: 3cf8 97c4 fc6f ac3f e14c 34ac a1cb d33f
00000780: fb37 bef7 9064 d9bf 03cf bb7f aa9b f4bf
00000790: b5e5 0eb0 5ee2 e93f a0b4 a163 cd29 ebbf
000007a0: 866f 8ebd 0292 bd3f a26e 9ed1 9843 ddbf
000007b0: 7e51 9be8 c446 00c0 ef96 8f9e 4fd7 e23f
000007c0: c532 3795 7846 ebbf 394c 4fce 15c4 d3bf
000007d0: 54c8 d8df 6dc3 bcbf 8199 eb68 13d5 d0bf
000007e0: 8a41 cf70 49ef d5bf 48c2 1f64 632b d4bf
000007f0: fae8 f198 b28d edbf 2026 c073 638f b4bf
0.1014440782057973 0.40608847536006865 1.0364339822947635 -0.27849408775911466 1.1312062480681337 -1.3046275140080033 0.27223813772773253 0.09900874775161647
-1.268954368079351 0.23345543352206996 -0.06115908228164264 -0.11780827745454144 0.756959518616798 1.3247741176629886 0.4452447631759149 -0.9358902717554983
-1.2549258748259202 -0.012998350367648487 0.7690487408478434 -1.2717005201182006 -1.350396487164751 0.23018601555691834 -1.2067496419568515 0.24899474073582334
-0.43785786859504044 0.9717760978576571 -0.43563624103235504 1.0902801150288606 -0.7308621499670274 0.25972509565531404 0.6949087889105846 0.2576776807269108
1.5775943426309327 -0.05502484451834119 0.24344364964316723 -1.6128313916456885 -0.5247788186609569 -0.5974982572148675 -0.6498881948117209 -1.339411149212475
1.1886468788273201 0.3889954404512675 -0.4322679872913236 0.8138588820714338 0.0672604751213209 0.48127236758797337 -2.1137686167766323 0.1613638244072003
-0.4061725863416513 1.439958298098404 0.1471860814469761 0.15276102886737408 -0.2127045283184746 -0.445719275517623 0.30974349069293483 -1.4347059199784962
-0.6264006901238725 -1.4916171620394973 -2.1449284663068204 0.8343442584505487 -0.3549133673411337 0.4464259409774904 -0.18213567871765615 0.4222794901414524
0.5087899308048631 -0.6616045178560925 0.2564041623689858 0.8101822366186426 -0.4958055619180089 1.2841290075091063 0.15655501180116543 -1.8211818187117141
0.14875636604410608 -2.8410730025781934 0.2176947368709418 0.06739569957013697 -0.3950551696820368 0.359265568929362 2.337714077981845 0.4422860076893794
-0.7743294371841407 2.076393395478062 -0.20677256965595797 -0.6213701992755709 -0.7466345550184152 1.5746601078647426 0.3007505401564243 0.27249900367853813
0.2635630896500717 -0.6294828602796887 -0.12980386506936217 -1.8111813699271138 1.8361518860593913 -0.15917963953935493 -1.124339325608814 0.2922163404353234
0.8193450219620092 -1.5869690281007705 -1.828604488978013 1.365536943596777 -0.7389381192939914 0.016781422674093934 -0.4911305938647877 0.9088475503976661
0.2876282286124718 -0.17836079586657283 0.7840187990993402 -0.22088532181236725 -0.28273068495244563 -2.070674625442031 -1.1479325437797065 -0.8217178792383993
-0.17874871338772771 0.7860264290428484 1.1164439872505865 0.4998740752685523 0.8693702974882334 0.7565145756537105 0.010270056608040373 0.482154738978093
-0.9468619170366227 1.0935867473353849 0.6505841920171853 -0.23817699355570834 -1.8974666982386497 0.014815834736087273 0.5421265225482951 0.5214746208143277
-1.0244948090958805 -0.04893599902602403 -1.6532183152145024 0.06483492205001677 1.3956554683468623 -0.24524305776303695 -1.66291702434378 0.8979859745700376
-1.1319524561442975 -0.4250363724999886 0.23132048117304488 -0.2990578049074236 0.12115833110663758 -1.4020918441355754 -0.4890886514774413 -0.01323632914239481
-1.4728203503586483 -1.038009633418277 0.07633629568838635 -0.36447367445798556 0.9478093757137314 -0.9639104020415307 -0.24808948584080856 0.36548078167073544
0.12129097265104477 -0.5891565991873989 0.4902441912444979 1.309080760519377 0.20561790491875628 0.5308000490726219 -0.45406652278790893 0.11965777022176301
0.3099896017553355 -0.07949852295560998 0.6412741766613523 -0.6909544612088945 1.024398661025247 0.9664724968473095 1.3582070388520247 -0.5350104780670906
0.8606305403252861 -1.1806588276156962 0.12851470052094813 0.40816477861663875 0.9122441046975375 -1.9160419743820443 0.001326954882617417 -1.0203935043725674
1.4318904583110816 -1.0575647363081246 -0.07332535156691322 -0.1558965180619518 -1.898213677230574 0.09460271728989933 -0.9776818081305331 0.790334655685772
-0.1925433739688024 -0.961567752823284 -1.061156537127466 -0.16662106821834521 -0.16197372746962052 -0.03651793698145575 -0.4531154679917815 1.6234801776499301
1.059070063577949 -1.8877180930128832 1.3384698958467092 -1.0374506956050995 -1.2097158375783776 1.5774666205764234 -0.2996696035788717 0.16324754202584463
1.2457592218630853 0.3128474335702163 0.6291219361750898 -1.6170202498894706 -0.24333924170150714 0.4652717964972471 1.3943574007988844 -1.132332659289138
0.573740726533673 0.8705046488095529 -0.8079095861922588 0.24415744552439878 1.2515370352181658 -0.4274368983409676 -1.1352222658248878 0.8936520160807954
0.07918672615053224 -0.6156417775514648 0.49523895626568126 -0.7277647685150325 1.0612389169537633 -2.327927616227512 0.6434789952456447 -0.7558632370810393
0.1453676034808511 -0.2758128377687408 -0.8036210566180173 0.3697891245163764 0.7924267918458381 -0.2337352185295464 0.6961565821225159 -2.0314473617848527
-1.5220349687874293 1.6061230337821837 -1.974778553486041 -0.16355704776475652 -2.1324260700250597 -0.5139994358819427 0.05554189586472133 0.3093036824877356
-0.39676307862907806 -1.2880043973536324 0.8088830412518094 -0.8488528200083643 0.11550919654695066 -0.45725079031556437 -2.034555260887088 0.5887830826656834
-0.8523524202697322 -0.308843089556095 -0.11235701289186412 -0.26300511594890713 -0.34272991196214575 -0.31514820840587676 -0.9235470759588502 -0.08031293464605271
