models/reacher/benchmark/checkpoint_target_nes_layer_2.pth (torch_old, 29423 bytes, 3 tensors)

weight f8 [4, 300]
0	0x3fe5f1c63b792a98	0.6857634698474895
1	0xbfe42f92795acf34	-0.630807148953386
2	0xbfe17a07141c53e8	-0.546145953444122
3	0xbfe4de7dfbf7af34	-0.652159683345849
4	0xbf9f71152751c628	-0.030704813504092737
5	0xbfd93e11369130f3	-0.3944132836229663
6	0x3fe5684cda19de30	0.6689819583688799
7	0x3fd01c03eb36bfa6	0.2517099186907167
8	0x3fbb8a366042bf52	0.10757770395389102
9	0xbff126fffc5cab59	-1.072021470822355
10	0x3fe2cd519fda8b92	0.5875633356230188
11	0xbfccd525d9d6162f	-0.22525475632225908
12	0xbfd46f79b5ec9a69	-0.3193039204219646
13	0x3fa66544c06bff57	0.043741367806431945
14	0x3fc865b6ce4fba7f	0.19060406755257372
15	0x3fdd3554e52f540e	0.4563801038869436
16	0xbfe4b34c2e791d0e	-0.646886912124417
17	0xbfb1010c379a1da7	-0.06642223699065274
18	0x3fe5d9fd25f89e1b	0.682859968340327
19	0x3ff4d44730ef13f8	1.301825705669442
20	0xbf71283ba2fd33b7	-0.004188759761586994
21	0x3fe4c8266878948b	0.649432376904444
22	0x3fb48e8bbfa32402	0.08030007771152728
23	0xbff2d0b47a6f2e3a	-1.1759533674802598
24	0x3ff4c5037336a90c	1.2980989933517462
25	0xbf987e21e66b1fee	-0.0239186570059075
26	0x3fa7c2ebb2c1f626	0.04640900189495438
27	0xbfe3fe68f05b30cf	-0.6248058981377883
28	0xbfc45d035ddc5ae4	-0.15908853610081686
29	0x3fde7a601b4a6916	0.47621920266250706
30	0xbf8dbad27d676fad	-0.014516491367366624
31	0xbfe7607d62ecb8de	-0.7305285389063803
32	0x3fe55d435e336d62	0.6676346626149263
33	0xbfa4f9b960599ad8	-0.04096774388454144
34	0x3fe1947317396c62	0.5493712857818418
35	0x3fde08beefa43136	0.4692838039634525
36	0xbfcad9e32842f478	-0.20977439371009488
37	0xbf92cd05171685a1	-0.018360213789156202
38	0xbfc7efc5226abd14	-0.18700470142855663
39	0xbfebc2531c509a6b	-0.8674712708496605
40	0xbfedf3de2ef21d6b	-0.9360190312299158
41	0x3fe487ad578afffc	0.6415621480773548
42	0x3fe58ad2f4a87804	0.673196294639411
43	0xbfba1d3a3d6af4b4	-0.10200847625215453
44	0xbfea50cc0ace8930	-0.8223629199094713
45	0xbfa4c9e56b547a3c	-0.04060284552746338
46	0x3fcb8e95e5c9c5c1	0.21528886528134986
47	0x3fd144e407de308a	0.26982975738861426
48	0xbfc870300e061e8c	-0.19092369732628744
49	0x3fb06bb34536f7cd	0.06414337577640979
50	0x3f852d4df45d57b6	0.010340317745128984
51	0xbfcdded1a7ec703a	-0.23336239528078
52	0xbfd3494a7bd4bafb	-0.30134832470768885
53	0x3fe75037deb824ff	0.728542265890752
54	0xbfe925361cd88641	-0.7857924044985297
55	0x3fdde123e37b9f61	0.4668664666664793
56	0x3f938fb0bf316b77	0.019102822942254485
57	0xbfb33e29c79379d4	-0.07516728517973742
58	0x3fc5c0ffdec1a8fe	0.16995237709790695
59	0xbf919f89328251c0	-0.017210143764332164
60	0xbfa4a0b1eac37826	-0.04028850546613709
61	0xbfeede4cec4700b7	-0.964636289099892
62	0x3f81fc5904c18170	0.00878209634555624
63	0x3fe2c4db18e243be	0.5865302549374218
64	0xbfc664336696bf99	-0.1749328852579282
65	0x3fb1863e9ca85ec8	0.06845465969706332
66	0xbf92417f0d9b292a	-0.017827973561716316
67	0x3ff3f9f8650a6c3a	1.24852790326146
68	0x3fe2cfb678a3c644	0.587855563759327
69	0x3fefc226244de9fc	0.9924498280591361
70	0x3fc689c9193c74a5	0.17607988102182506
71	0x3fe0db8aab1bda28	0.5267995206803038
72	0x3fdd5ece61799792	0.45891150969543404
73	0xbfe9a583679447ab	-0.8014542601615536
74	0x3fd55ebeaab12933	0.3339077631868747
75	0x3fd6bde82253a72a	0.3553409896108969
76	0xbfe8ca815be870ca	-0.7747198863103446
77	0x3fdc4869d639071b	0.4419197647113024
78	0x3fa6eaf81e52fcff	0.044761422826463
79	0x3fd226d2ba79a044	0.28361957750758315
80	0xbf96e2bb57636579	-0.02234928818584112
81	0x3fb2639fe4048e20	0.07183265034523645
82	0x3fe32b80009e2f8f	0.599060059744703
83	0x3fe06588cf571e78	0.5123943376174358
84	0xbfb07ea7369f4c5a	-0.06443257411528816
85	0x3fd5c6c1fa1805b0	0.34025620864130257
86	0x3feb8102239b91bc	0.8594980903113121
87	0xbfeadd31b94d150c	-0.8395012492334515
88	0x3fca1b75e85a9e42	0.20396303029450463
89	0x3fa7739e7a87d212	0.04580397840246432
90	0x3fa64fde9bf1b3c3	0.043578106437827134
91	0xbff33afd141e978d	-1.2019015108030289
92	0xbfb9c428c0e314bf	-0.1006494017520536
93	0x3fdac389ccbd65b0	0.4181847094929152
94	0x3fdd04a6096de8e0	0.4534087268908831
95	0xbfcdc81723dabfc9	-0.23266877413470713
96	0xbfed6caf8cad3f2c	-0.9195173022835426
97	0xbfe576e88c448680	-0.6707651843646119
98	0xbf99e68b2658c77a	-0.025293516364576864
99	0x3feeaad20a14fcd6	0.9583521077073793
100	0xbfd0bf0822aa8339	-0.26165965447767153
101	0xbfb2337d35bf70b1	-0.07109816133692239
102	0xbff2d473cdc9e862	-1.1768682516690423
103	0x3ff15fc6f42268a3	1.0858830963611943
104	0x3fa8db257a737c75	0.04854695434345838
105	0xbfd5abb9717ecb5c	-0.33860622485660996
106	0xbfd8c12b5db356b6	-0.38679012442058125
107	0x3fe177013e4014bb	0.5457769599749079
108	0x3fefd5a162e7e473	0.9948279315714345
109	0x3fc0f22e06aa278e	0.1323907406370463
110	0xbfe426c3d61815a9	-0.6297320539021501
111	0x3fedc1234553ce6c	0.9298263887453238
112	0xbfadb96e99e3db7b	-0.05805535915890566
113	0xbfcdf699d0a63791	-0.2340881603999461
114	0xbfc171411cbec7bb	-0.136268748317489
115	0xbfde46abd3f74cad	-0.47306342792326
116	0x3fb09baf7b75e3be	0.06487557186291235
117	0xbfc6e845df16c9be	-0.1789634074498973
118	0xbf93b9be5fee105a	-0.0192632432986247
119	0x3fe52ba36087010e	0.6615769276905057
120	0x3fbe3db31766008e	0.11812896081210253
121	0x3fc74f02d1101cb8	0.18209872444297104
122	0xbfb5584c510b4bb4	-0.08337857226005846
123	0x3fb96fffe7d91640	0.0993652287516733
124	0xbfc13ea401fe15fa	-0.13472414109507708
125	0xbfc3f321210f2564	-0.15585722078530317
126	0xbf906d4e7da3ea38	-0.016041971605753796
127	0x3fc15d69dbb4687e	0.1356632540490103
128	0x3fab71268f20570b	0.05359764573237954
129	0x3f9ee8c99aadc085	0.03018488890251138
130	0x3ff63e25f009667c	1.3901728989061715
131	0x3f9d3f006cf04e6e	0.028560644768801095
132	0xbf9d862a523254e4	-0.02883211256683617
133	0x3fb57b67edf6221e	0.08391427573781882
134	0xbfe1c9dd6d368a91	-0.5558917172496242
135	0xbfe8f8f37c7d5ece	-0.7803895408096311
136	0x3fde9f2f682c527b	0.4784658925357587
137	0x3fdb3cef25097fff	0.4255941259089013
138	0xbfbda22e88f93012	-0.11575594753338717
139	0x3fcce96d1f30610f	0.22587360403918708
140	0x3f94a3d6685e0202	0.020156240577764002
141	0x3fc2be97d541097e	0.14644143975062812
142	0x3f7d6f2398bde9bc	0.00718606858196796
143	0xbff3341b8886f9ba	-1.2002215703101755
144	0x3fe8fcb0c808b64e	0.7808460146822627
145	0xbfd8780d5d5d6f84	-0.3823274051444445
146	0x3fd5fad1f694332b	0.3434338481900336
147	0xbfcf34a2cdb46aae	-0.24379382175614722
148	0x3f658a3c0999d24d	0.0026293919188964733
149	0x3fb7b3b9cc2aac86	0.09258614763773396
150	0xbfe079d36f21b8aa	-0.5148713274518475
151	0xbfd10b8101908cb1	-0.26632714417264497
152	0x3ff2b66251a60d95	1.169527357997912
153	0x3fa410387393cf7a	0.039186252697532134
154	0xbfe6bc33784bead6	-0.7104737615148575
155	0x3fd6ee6724ea27b3	0.35830095868061135
156	0xbfa418bebaf7e8db	-0.03925128967598975
157	0x3f9805d0eed82b6d	0.023459686830431026
158	0xbfb92b7fada2172e	-0.09831998814669582
159	0xbff18d5e59e2547a	-1.0970138083551135
160	0xbf78a9caae6ca94e	-0.006021301006322878
161	0xbfd6764458cf9eb7	-0.35096844361258256
162	0x3fb169e9824d198f	0.06802234107190074
163	0x3ff2fee92803947e	1.1872340739294311
164	0x3feba9f65a34160c	0.8644973527704578
165	0xbfef9f5b625b2f54	-0.9882027550715784
166	0x3ff0343949988642	1.0127499461017497
167	0xbfad9b24858c0acd	-0.057824269582871325
168	0x3f7a20e3c855410d	0.006379022384251931
169	0x3fd5becf8a98d02a	0.3397711614118203
170	0xbfaac991266dbeb6	-0.05231908411121593
171	0x3fba22fd6134d18b	0.10209640143586378
172	0x3f9fe978fa9cd3c5	0.031164064689807498
173	0x3fd1fceee8b1a04e	0.2810628197098638
174	0x3fbb1928322b8786	0.10585261559347545
175	0x3fcbf4d181781ae2	0.21840876409279192
176	0x3fe0094d54a44dad	0.5011355069313389
177	0x3fe9ffbbd42e817b	0.8124674934552297
178	0x3fc511dcf346be43	0.16460763815620014
179	0xbf98261b42f14baa	-0.023582864724015863
180	0xbf4bb8ae15c886ed	-0.0008459901833399432
181	0xbfc00c7f55794e73	-0.1253813903191375
182	0x3f8d9a4fe6501f00	0.01445448323831
183	0x3f920eff8a3fe556	0.01763533860500862
184	0xbf6811d18a1c83a6	-0.002938184029418217
185	0xbfe91cbfbce5bafd	-0.7847593964960137
186	0xbfea5a97050128b4	-0.8235583398575472
187	0x3fd037c7f2db7b8a	0.2534046050695272
188	0x3fb1efb28c827f92	0.07006374292768516
189	0xbf99010c91df4216	-0.02441806450207381
190	0x3fd4fca7012acd59	0.3279206763647458
191	0xbfa70d1ca0d43c60	-0.045021910316898284
192	0x3fded3e089a6c1b3	0.4816819519283186
193	0xbfb1a6dd0b961c22	-0.0689523843085316
194	0xbfe9048021738122	-0.7817993787139452
195	0x3fe6ac0843300c34	0.7085000335940834
196	0x3fddfab341bc36e1	0.4684265272088464
197	0xbfbb69fa6285df54	-0.10708584695191564
198	0x3faf509b6665ec77	0.06116185784318245
199	0x3fe8c41a1cb8342a	0.7739382325104363
200	0xbfd93214d1434b72	-0.39368172107531685
201	0xbf9cbbe55390ead4	-0.0280605156187715
202	0xbfec5a6ee16f193c	-0.8860392001159094
203	0xbff5c645cb35139d	-1.360906404284129
204	0x3fe9f645530cfdb0	0.8113123533329851
205	0xbfbebd220aca19e2	-0.12007344020285118
206	0xbf6c8161eea3fb37	-0.00347966315632622
207	0x3fd646dca3cb932a	0.34807506557108303
208	0xbfc4a9b02be696a6	-0.16142847198095928
209	0x3ff36363953693f4	1.2117648914947923
210	0xbf9054edccb3d967	-0.015948978060771248
211	0xbfd68646b1ededd2	-0.3519455659477134
212	0x3f897899b3759a97	0.012437058247724493
213	0x3fcc5121f09698da	0.22122596976732362
214	0xbfdf1e097af69057	-0.48620831497306
215	0x3feac8a35b053a3e	0.8369919564955308
216	0xbfccef9d338f52fc	-0.22606244103976525
217	0x3fe23971c62fac10	0.5695122595619768
218	0xbfb80954e3790fad	-0.09389238885438429
219	0x3fd68b6a0d6d6472	0.35225917159329534
220	0xbf53cb1887741afb	-0.0012080897848265038
221	0xbf7267b1216b49c7	-0.004493419567284502
222	0x3fe3c71b08a40382	0.6180548828852894
223	0x3fa2c21a16603f70	0.036637130004350094
224	0x3fec0aaba5e1d5be	0.8763025512586677
225	0xbfc3d69f50680727	-0.15498725343791728
226	0x3fc05e0b2b732a77	0.12786998387885593
227	0x3fc02567398875e3	0.1261414557383623
228	0xbfd5970e0328e9e3	-0.33734464939666803
229	0x3f91c10a8667ea68	0.01733795590733181
230	0xbfe09f8e34366946	-0.5194769878174064
231	0xbfec062ac31c90b8	-0.8757528124592886
232	0x3fa1f46d3e9a5f3f	0.035067953006715495
233	0x3fe1756fcb8eada0	0.5455855346421465
234	0xbfa8840e1b568aa5	-0.04788250049320667
235	0xbfc1bc277617b7f7	-0.1385545088409683
236	0x3f69ca01ec4ebaee	0.003148082500465824
237	0x3fccbcbaa5aaad71	0.22450955475992943
238	0x3fd162c3ec0edbf6	0.27165315678160995
239	0x3fdc06b7b80a17f8	0.4379100129375497
240	0xbfe4d03437ee7ccc	-0.6504155247129346
241	0xbfe38b13f6bbc8b9	-0.6107272929205215
242	0xbfd26234b8f61325	-0.28724401533718186
243	0xbfdbe6c58a12d52a	-0.43596018298861117
244	0x3fd3a5aa3198a178	0.3069863781297708
245	0x3fe4c3410d48287b	0.6488347300921896
246	0x3fe67595509b4888	0.7018534254405191
247	0xbfb4c32ad9f0b4e9	-0.08110301800543919
248	0x3ff77f75075a9aa7	1.468617466665515
249	0x3f9c24e303cb6da5	0.027484461886030726
250	0xbfd48c26c1d1e04d	-0.32105416228978784
251	0x3fbe225c583f4fc5	0.11771180300212254
252	0x3fd7e49a60c59a2a	0.37332782221202143
253	0xbfb42a7b5819f7a0	-0.07877322102464612
254	0x3fb7c7fdb632751e	0.09289537141963364
255	0x3fa1aa68b285c6d8	0.03450324229460272

sigma f8 [4, 300]
0	0x3fb8c855eae18e98	0.09680687889481943
1	0xbf8580db3736bf8f	-0.01049968015908556
2	0xbf963bbcd4beffd9	-0.02171225594042867
3	0xbf973ccbe246e4a0	-0.022692857442710435
4	0xbfa6576581f0abe5	-0.04363553248580113
5	0xbfa1d4f9ad7b63c1	-0.034827997614861335
6	0xbfafde1e42c0bda8	-0.06224150242666876
7	0xbfcec944f3372cde	-0.2405172526908705
8	0x3f393ff2122cdc53	0.0003852811807293955
9	0xbf839ee2b09fb658	-0.009580393805630624
10	0xbfc9271de5e722ca	-0.1965062496731405
11	0xbfb4b9e4ec163662	-0.08096152080380528
12	0xbfc6f5559dfef7a5	-0.17936201300284185
13	0xbf92a7b5429a9341	-0.018217880430387415
14	0xbfaa5aa1407f82a9	-0.05147270119028253
15	0xbfaa0ee55da01353	-0.050894897154683115
16	0x3fb84a591bc0c5d5	0.09488446166576321
17	0x3f845fc1f5e739c6	0.009948268238898172
18	0x3fad3c535654b184	0.057100872314864964
19	0xbfce58c22a78ae3a	-0.2370836932544636
20	0x3f8445e5d3d68bb7	0.009898944403920014
21	0xbfbf934b7fabf9e6	-0.12334129206644881
22	0xbf690f4060011fe3	-0.0030590302776864905
23	0xbf99c034b2b2cded	-0.025147269637001136
24	0x3fae931c977349f8	0.05971612309226154
25	0x3f88d61d458fae05	0.012127140698757985
26	0xbfbc47d08ec34fbc	-0.11047080502913692
27	0x3fb92075b07c5a50	0.0981515460847302
28	0x3f8fc7c820413b03	0.015517772182787498
29	0xbfb92b3da58b9358	-0.09831605235701824
30	0xbf52e34d221a24cd	-0.0011528256658571046
31	0x3f8fdf8d52b819e2	0.015563110434425324
32	0xbfad961e7250bbfd	-0.05778594155741954
33	0x3fad98b284ffd6b0	0.05780561326529943
34	0x3fc870ece638593c	0.19094620934692752
35	0x3f7936d0439272ba	0.0061557898817709514
36	0x3fab4863069445ce	0.05328664260208492
37	0x3fa083a2bbe9e204	0.032254300535843355
38	0xbf6d9a397d4e38ab	-0.003613579067354674
39	0xbfc103d2f133d5fa	-0.13292919900383976
40	0x3f9a6aa1de1ac32c	0.025797394925294245
41	0xbf7e2439d935a0be	-0.007358766527751635
42	0x3fc621aa03b94db5	0.17290234739139768
43	0xbfa9d5b2b41de99b	-0.05045851181690183
44	0x3fbc28da91439c5d	0.10999837919699602
45	0x3fc3f9fae28126f1	0.15606628474988996
46	0xbfacde4336ea5b1c	-0.05638322873453758
47	0xbf3d83ce995d4450	-0.00045036119387470864
48	0x3fc048c5f01477c8	0.12722086165098134
49	0x3f7fed9c93be74a9	0.007794963483232533
50	0xbfc2feb62a834be0	-0.14839818073104905
51	0x3fa892a432487612	0.04799378503615172
52	0x3faf7410a72f92af	0.061432381065775636
53	0xbfb14c2947996cf0	-0.0675683784297012
54	0x3fc4910579a2769c	0.16067570151510757
55	0x3fbbd682a454680c	0.10874191772418856
56	0xbf861c4716e8322b	-0.010796122919623027
57	0xbf88035de80f83a9	-0.011725171703746389
58	0xbfcb9ad465716412	-0.21566252663868163
59	0xbfa03370655f82ff	-0.03164244878258237
60	0x3fb53495cc3f4fcf	0.08283363567835454
61	0x3f98ac9dc812daf0	0.0240959790578143
62	0xbfbdf99c40573cfc	-0.11709000178165135
63	0xbf9c51034dbfba67	-0.027652789707583027
64	0xbfcc1e5c40040787	-0.2196765244080405
65	0xbfa02787256183ff	-0.03155157405195296
66	0x3f342b00b50b1ff9	0.0003077389456334064
67	0x3fa7323bc32d3066	0.045305125785120734
68	0xbf7c74dffb20058f	-0.006947398114790628
69	0xbfbc510ccfdfb1a6	-0.1106117255691915
70	0x3f79905a058b4400	0.006241180083365272
71	0xbfb2fbf246d4ed26	-0.0741568968705236
72	0x3f68233a0eb58cb9	0.002946484940979124
73	0x3fcadbfb2fdf31b6	0.2098382934331206
74	0x3fc5ac43fd0c6f35	0.16931962829482364
75	0x3f870ef71cc7fbb9	0.011259012761909536
76	0x3f91d3bde71451ef	0.01740929339310243
77	0xbf3c5f8d1a5ec9bc	-0.00043294138810803426
78	0x3fba02f8e60ec3ae	0.10160785309450546
79	0x3fab1737bbf58dba	0.05291151208328011
80	0x3f9e2f5d556e75c1	0.02947755655224227
81	0xbfad16141b415aa3	-0.056809070899068524
82	0x3fa4852675ce01c5	0.040078355675180734
83	0xbf92708a00bf039d	-0.018007427497426332
84	0x3f87640d38f5072d	0.011421302128499978
85	0xbfac4c10c7a8e13c	-0.0552678340649799
86	0xbfb83de057be3abb	-0.09469415800252083
87	0xbfb147f093e01591	-0.06750396356809164
88	0xbf814c1f5e94e47d	-0.008445973466779439
89	0xbf532b718f6efdc0	-0.0011700257289105481
90	0xbfa6fba817442f52	-0.04488873752606416
91	0x3fb64adcbffd35fe	0.0870798081134225
92	0xbfa8918814752f3b	-0.04798531770447175
93	0x3fa60d017371f35d	0.0430679753708094
94	0xbfd05959235a9451	-0.25545338108560595
95	0xbfb6e8cca602e92b	-0.0894897370625684
96	0xbfbed9e5c36465d5	-0.12051235218350283
97	0xbfc98378fcbd1ebd	-0.1993247255397729
98	0xbfa4f5508ece15ef	-0.04093410247063988
99	0xbfb86b7032cf0d06	-0.0953893779797462
100	0xbf9572bbbb0f72f8	-0.020945485393769808
101	0xbf65e2581aa2b1ae	-0.00267140586682598
102	0xbfd08fad10bb2ed4	-0.25876928934006327
103	0x3fb439c231bcf4a8	0.07900632585820466
104	0xbfc2ff78b51b02cf	-0.14842137187044677
105	0xbf9d667c85e97457	-0.028711267159782086
106	0x3f6bbcbab0b068f8	0.0033858915608223593
107	0x3fa3fa05e1de6789	0.03901689893900968
108	0x3fb6be6488ffeac2	0.08884266228407525
109	0xbfa53bf4ad650009	-0.04147305122978657
110	0xbfbeac9c6d7345e2	-0.11982133552671528
111	0x3fa91fdfc5fc8aca	0.04907130519702248
112	0xbf70dad6037db448	-0.004114948263901637
113	0xbf4600261ff9f7f0	-0.0006714044720437223
114	0x3fa7f7a7708c2ee1	0.04681132553932144
115	0x3fd1a4b9a675d7d7	0.27567902809039196
116	0xbfb5a4df36ea8238	-0.08454699602817406
117	0x3f89d83766942ee6	0.012619431322057516
118	0xbf6f5ece3f2fd1f6	-0.0038293865450162957
119	0x3fb1eb096586d0f3	0.06999262551000011
120	0x3fbd78b1da4ed2d5	0.11512290553839517
121	0xbf8cf464a4dc8093	-0.01413801792256234
122	0xbfb1d2da3ba49d8d	-0.06962360340241087
123	0x3fab1a8c4a7eee91	0.05293692025540254
124	0xbfc9b3629f722487	-0.20078690324252
125	0xbfb18d5124049188	-0.06856257562009749
126	0x3f90cb302b2dbaf0	0.016400101313986448
127	0x3f96735b68cb6b35	0.021924427291064325
128	0x3fa0e1529afcd0c9	0.03296907560289381
129	0xbf96d8d2125b5fa7	-0.022311479921739565
130	0xbfb60bcf2757e725	-0.08611769400149834
131	0x3fbc785ca4dab1d3	0.1112115766979465
132	0xbf3244945dd7ed80	-0.000278745863255124
133	0x3fa2b59b1ac74697	0.036541792887544826
134	0xbf976cfb1b9badfa	-0.022876666603151442
135	0xbfb84ee559862a21	-0.09495385585447781
136	0x3fb69016e0558b56	0.08813612915905131
137	0x3fb1986b43a3e5ad	0.0687319793832077
138	0xbf53b4f4c8000f07	-0.001202811283293083
139	0x3f74e1a03ad2c862	0.005097986123631855
140	0x3fa576aa540a7a5f	0.04192096973314529
141	0x3faad49054005f82	0.05240298295410552
142	0x3fa8c5f25ae47b6d	0.04838521346595468
143	0xbfa3bf2ccadd0309	-0.038567924274053374
144	0x3fbd8ab395f890f2	0.11539766703987533
145	0x3fb1327e1f6c612c	0.0671767069546873
146	0xbfac255f3f5b69a6	-0.054972626194018034
147	0x3f4c9532cfa3dc3a	0.0008722780324025355
148	0x3f6d0941bfd4a4cd	0.0035444530646101314
149	0x3f959abd7c1176a7	0.021098099420092577
150	0x3fc89d8b2065de82	0.1923078449433327
151	0xbf71ccb929f60f67	-0.004345629974867516
152	0x3fb186d705d851d6	0.06846374409389652
153	0xbf8bdabdd3d88463	-0.013600810077209318
154	0x3fba2f23e7b6a78c	0.1022818031985066
155	0xbfab226185264deb	-0.05299668073999072
156	0xbfaaf747a9f7e013	-0.0526678462010183
157	0x3fb1742c7c982b28	0.06817892114501645
158	0x3facdb01e116118c	0.05635839340814916
159	0x3fa269c195b6b1fd	0.035963105702965216
160	0x3fa7684cd482686f	0.04571762174710236
161	0x3f7209af6381820a	0.00440376769265117
162	0xbfc11214da26c738	-0.13336430217673878
163	0xbfb908149cfb2a82	-0.0977795489554101
164	0xbf9e32c9302136b6	-0.02949060779820086
165	0x3faf61a56a0e07ec	0.06129185599912987
166	0xbfb77ac91a3f666c	-0.09171730891048363
167	0xbf41cb04326e2a2c	-0.0005430002682811955
168	0xbf8b9bc82ad6fc0d	-0.013480724151007118
169	0x3fc06ab5e365a79e	0.12825654605267983
170	0xbfa7a2dc462d66df	-0.04616440159470669
171	0xbfa67b6cc0d51ac7	-0.043910406626812164
172	0x3fade6430b6d7e65	0.058397383828148
173	0xbf900ebb8e608e0a	-0.015681200566303878
174	0xbfaa4bc84b65d5ad	-0.05135942383177947
175	0xbfb580ffe542cca6	-0.08399962756338883
176	0xbfae5837513f6c2e	-0.05926678530496364
177	0xbfa8cfc4c70f891a	-0.04846014909687053
178	0xbf81d37ba7b9a12a	-0.008704153114380182
179	0xbf64694e5148b2b4	-0.002491620029351738
180	0xbf358a8aee53b225	-0.00032869235867741465
181	0xbfa012e2f53a87fc	-0.03139409297479287
182	0x3f72ceb6e6dd6abc	0.0045916695215406055
183	0x3fbe27c3771841c8	0.11779424340807687
184	0x3f917c2d7d5e1d46	0.017075262810547963
185	0xbfb59b08a96bf6af	-0.08439687858841681
186	0xbfb10fdf018f2b71	-0.06664842403476513
187	0x3f7693041e0384d1	0.005511299212430391
188	0x3f9e4f957060fa9b	0.029600462898310736
189	0x3fb7242c95d3570a	0.09039572389459863
190	0xbf92c1ee26fb78af	-0.018317910317698857
191	0x3fc86fc0c091c619	0.19091042902759695
192	0xbfce92e5b8d504ec	-0.2388579514027137
193	0xbf845ac3f185746c	-0.009938746269364716
194	0x3fc44666b8fc3544	0.15839847595672485
195	0xbf827c1a27c774d7	-0.009025768603289226
196	0x3f9af447e7bd6b88	0.026322482604296066
197	0xbf7ea28a79be2c7a	-0.007479229850910868
198	0x3f969dd036c9d7f4	0.02208638510133905
199	0xbfc37f99ad09248b	-0.15233155201920953
200	0xbf8613cde8eae7a5	-0.010779961271840064
201	0xbfa4ff2794b60596	-0.04100917520828344
202	0x3faa3e7bc05551ad	0.05125796053713159
203	0xbfbbbaba8dd9df74	-0.1083180042568282
204	0x3fb7abb59e227ee0	0.09246382818900711
205	0xbfa214a45c3c0e07	-0.03531373620901595
206	0x3fa1e4866653d550	0.03494663237681073
207	0x3f69a61caaeb1f94	0.0031309661784212992
208	0xbfb9807a1cf7eb35	-0.09961665351140143
209	0x3fc8b5cbd15734bc	0.19304797860823963
210	0x3f9b5a331921d9ce	0.02671127167601544
211	0xbfc68b13c33022f8	-0.17611929922738745
212	0xbf8c517aa7b4227b	-0.013827284090909267
213	0x3f77a7358dec1614	0.005774697491465659
214	0x3fa77902be2c394f	0.045845113481947856
215	0x3faf2ac7b27aa15a	0.06087326101016073
216	0xbf75eb9a06c9ecd5	-0.005351640382851038
217	0xbf750a32dbdfd840	-0.00513667933227252
218	0xbfbe6c4b14cd507c	-0.11883992441045338
219	0xbfc9f9c5d2180681	-0.2029349590157388
220	0xbfa27a8045cd589a	-0.036090858956115926
221	0xbfadcd465b4aebbd	-0.058206747669337734
222	0x3fa9e74db3948949	0.050592830821431685
223	0x3fa49b7b37eca15f	0.040248728348447164
224	0x3fb8adc038a29063	0.09640122778597653
225	0x3fa552d006576962	0.04164743497286129
226	0xbf9e72d9e3c8de35	-0.029734997299071437
227	0xbf931965aa5447fb	-0.01865156986338688
228	0x3f40f3d5a59fc478	0.000517348594483504
229	0x3f968c1670d70821	0.022018767010884347
230	0x3fa4d37108a3e421	0.04067567091437519
231	0xbf95aeb2f445fa30	-0.021174236449491513
232	0x3fa8b8d0a236a55f	0.04828502636093889
233	0x3fcb20e8014269cc	0.2119417196416421
234	0xbf7ef30dcc2baf8f	-0.007556013008734554
235	0x3f59c38afed1fe0d	0.00157249997872089
236	0xbfb417a462d20ea7	-0.07848575031862969
237	0x3fd0d032710fc720	0.26270733872580543
238	0xbfc0adc4d71e6066	-0.13030300620880836
239	0xbf658c7f6d8fd1a2	-0.002630471117749348
240	0xbfc1431a3434c86f	-0.13486030148630188
241	0x3fa058fdff1a765f	0.03192895640425485
242	0xbfb0434cfaea87b0	-0.06352692724115516
243	0xbfbb05351965119f	-0.10554820890417325
244	0x3fbace38daf623f3	0.10470919938792615
245	0x3fc681a7a52f6661	0.17583175244981233
246	0xbfa3edc6a361e51f	-0.038923461383953965
247	0x3f81211cc59ebacb	0.0083639381226396
248	0xbfad22636e651698	-0.0569029876956339
249	0x3f8df4c54c55dae3	0.014627019302435545
250	0xbfb44b2ec694b36f	-0.0792721972290573
251	0x3fb37d46de921008	0.07613032277919285
252	0x3f61eaf8d1296752	0.002187238665368443
253	0x3f8d151a969cdece	0.014200408669793243
254	0xbfd09015d9b70c08	-0.2587942720530809
255	0x3fb186245e0218b8	0.06845309538957423

noise f8 [4, 300]
0	0x0000000000000000	0.0
1	0x0000000000000000	0.0
2	0x0000000000000000	0.0
3	0x0000000000000000	0.0
4	0x0000000000000000	0.0
5	0x0000000000000000	0.0
6	0x0000000000000000	0.0
7	0x0000000000000000	0.0
8	0x0000000000000000	0.0
9	0x0000000000000000	0.0
10	0x0000000000000000	0.0
11	0x0000000000000000	0.0
12	0x0000000000000000	0.0
13	0x0000000000000000	0.0
14	0x0000000000000000	0.0
15	0x0000000000000000	0.0
16	0x0000000000000000	0.0
17	0x0000000000000000	0.0
18	0x0000000000000000	0.0
19	0x0000000000000000	0.0
20	0x0000000000000000	0.0
21	0x0000000000000000	0.0
22	0x0000000000000000	0.0
23	0x0000000000000000	0.0
24	0x0000000000000000	0.0
25	0x0000000000000000	0.0
26	0x0000000000000000	0.0
27	0x0000000000000000	0.0
28	0x0000000000000000	0.0
29	0x0000000000000000	0.0
30	0x0000000000000000	0.0
31	0x0000000000000000	0.0
32	0x0000000000000000	0.0
33	0x0000000000000000	0.0
34	0x0000000000000000	0.0
35	0x0000000000000000	0.0
36	0x0000000000000000	0.0
37	0x0000000000000000	0.0
38	0x0000000000000000	0.0
39	0x0000000000000000	0.0
40	0x0000000000000000	0.0
41	0x0000000000000000	0.0
42	0x0000000000000000	0.0
43	0x0000000000000000	0.0
44	0x0000000000000000	0.0
45	0x0000000000000000	0.0
46	0x0000000000000000	0.0
47	0x0000000000000000	0.0
48	0x0000000000000000	0.0
49	0x0000000000000000	0.0
50	0x0000000000000000	0.0
51	0x0000000000000000	0.0
52	0x0000000000000000	0.0
53	0x0000000000000000	0.0
54	0x0000000000000000	0.0
55	0x0000000000000000	0.0
56	0x0000000000000000	0.0
57	0x0000000000000000	0.0
58	0x0000000000000000	0.0
59	0x0000000000000000	0.0
60	0x0000000000000000	0.0
61	0x0000000000000000	0.0
62	0x0000000000000000	0.0
63	0x0000000000000000	0.0
64	0x0000000000000000	0.0
65	0x0000000000000000	0.0
66	0x0000000000000000	0.0
67	0x0000000000000000	0.0
68	0x0000000000000000	0.0
69	0x0000000000000000	0.0
70	0x0000000000000000	0.0
71	0x0000000000000000	0.0
72	0x0000000000000000	0.0
73	0x0000000000000000	0.0
74	0x0000000000000000	0.0
75	0x0000000000000000	0.0
76	0x0000000000000000	0.0
77	0x0000000000000000	0.0
78	0x0000000000000000	0.0
79	0x0000000000000000	0.0
80	0x0000000000000000	0.0
81	0x0000000000000000	0.0
82	0x0000000000000000	0.0
83	0x0000000000000000	0.0
84	0x0000000000000000	0.0
85	0x0000000000000000	0.0
86	0x0000000000000000	0.0
87	0x0000000000000000	0.0
88	0x0000000000000000	0.0
89	0x0000000000000000	0.0
90	0x0000000000000000	0.0
91	0x0000000000000000	0.0
92	0x0000000000000000	0.0
93	0x0000000000000000	0.0
94	0x0000000000000000	0.0
95	0x0000000000000000	0.0
96	0x0000000000000000	0.0
97	0x0000000000000000	0.0
98	0x0000000000000000	0.0
99	0x0000000000000000	0.0
100	0x0000000000000000	0.0
101	0x0000000000000000	0.0
102	0x0000000000000000	0.0
103	0x0000000000000000	0.0
104	0x0000000000000000	0.0
105	0x0000000000000000	0.0
106	0x0000000000000000	0.0
107	0x0000000000000000	0.0
108	0x0000000000000000	0.0
109	0x0000000000000000	0.0
110	0x0000000000000000	0.0
111	0x0000000000000000	0.0
112	0x0000000000000000	0.0
113	0x0000000000000000	0.0
114	0x0000000000000000	0.0
115	0x0000000000000000	0.0
116	0x0000000000000000	0.0
117	0x0000000000000000	0.0
118	0x0000000000000000	0.0
119	0x0000000000000000	0.0
120	0x0000000000000000	0.0
121	0x0000000000000000	0.0
122	0x0000000000000000	0.0
123	0x0000000000000000	0.0
124	0x0000000000000000	0.0
125	0x0000000000000000	0.0
126	0x0000000000000000	0.0
127	0x0000000000000000	0.0
128	0x0000000000000000	0.0
129	0x0000000000000000	0.0
130	0x0000000000000000	0.0
131	0x0000000000000000	0.0
132	0x0000000000000000	0.0
133	0x0000000000000000	0.0
134	0x0000000000000000	0.0
135	0x0000000000000000	0.0
136	0x0000000000000000	0.0
137	0x0000000000000000	0.0
138	0x0000000000000000	0.0
139	0x0000000000000000	0.0
140	0x0000000000000000	0.0
141	0x0000000000000000	0.0
142	0x0000000000000000	0.0
143	0x0000000000000000	0.0
144	0x0000000000000000	0.0
145	0x0000000000000000	0.0
146	0x0000000000000000	0.0
147	0x0000000000000000	0.0
148	0x0000000000000000	0.0
149	0x0000000000000000	0.0
150	0x0000000000000000	0.0
151	0x0000000000000000	0.0
152	0x0000000000000000	0.0
153	0x0000000000000000	0.0
154	0x0000000000000000	0.0
155	0x0000000000000000	0.0
156	0x0000000000000000	0.0
157	0x0000000000000000	0.0
158	0x0000000000000000	0.0
159	0x0000000000000000	0.0
160	0x0000000000000000	0.0
161	0x0000000000000000	0.0
162	0x0000000000000000	0.0
163	0x0000000000000000	0.0
164	0x0000000000000000	0.0
165	0x0000000000000000	0.0
166	0x0000000000000000	0.0
167	0x0000000000000000	0.0
168	0x0000000000000000	0.0
169	0x0000000000000000	0.0
170	0x0000000000000000	0.0
171	0x0000000000000000	0.0
172	0x0000000000000000	0.0
173	0x0000000000000000	0.0
174	0x0000000000000000	0.0
175	0x0000000000000000	0.0
176	0x0000000000000000	0.0
177	0x0000000000000000	0.0
178	0x0000000000000000	0.0
179	0x0000000000000000	0.0
180	0x0000000000000000	0.0
181	0x0000000000000000	0.0
182	0x0000000000000000	0.0
183	0x0000000000000000	0.0
184	0x0000000000000000	0.0
185	0x0000000000000000	0.0
186	0x0000000000000000	0.0
187	0x0000000000000000	0.0
188	0x0000000000000000	0.0
189	0x0000000000000000	0.0
190	0x0000000000000000	0.0
191	0x0000000000000000	0.0
192	0x0000000000000000	0.0
193	0x0000000000000000	0.0
194	0x0000000000000000	0.0
195	0x0000000000000000	0.0
196	0x0000000000000000	0.0
197	0x0000000000000000	0.0
198	0x0000000000000000	0.0
199	0x0000000000000000	0.0
200	0x0000000000000000	0.0
201	0x0000000000000000	0.0
202	0x0000000000000000	0.0
203	0x0000000000000000	0.0
204	0x0000000000000000	0.0
205	0x0000000000000000	0.0
206	0x0000000000000000	0.0
207	0x0000000000000000	0.0
208	0x0000000000000000	0.0
209	0x0000000000000000	0.0
210	0x0000000000000000	0.0
211	0x0000000000000000	0.0
212	0x0000000000000000	0.0
213	0x0000000000000000	0.0
214	0x0000000000000000	0.0
215	0x0000000000000000	0.0
216	0x0000000000000000	0.0
217	0x0000000000000000	0.0
218	0x0000000000000000	0.0
219	0x0000000000000000	0.0
220	0x0000000000000000	0.0
221	0x0000000000000000	0.0
222	0x0000000000000000	0.0
223	0x0000000000000000	0.0
224	0x0000000000000000	0.0
225	0x0000000000000000	0.0
226	0x0000000000000000	0.0
227	0x0000000000000000	0.0
228	0x0000000000000000	0.0
229	0x0000000000000000	0.0
230	0x0000000000000000	0.0
231	0x0000000000000000	0.0
232	0x0000000000000000	0.0
233	0x0000000000000000	0.0
234	0x0000000000000000	0.0
235	0x0000000000000000	0.0
236	0x0000000000000000	0.0
237	0x0000000000000000	0.0
238	0x0000000000000000	0.0
239	0x0000000000000000	0.0
240	0x0000000000000000	0.0
241	0x0000000000000000	0.0
242	0x0000000000000000	0.0
243	0x0000000000000000	0.0
244	0x0000000000000000	0.0
245	0x0000000000000000	0.0
246	0x0000000000000000	0.0
247	0x0000000000000000	0.0
248	0x0000000000000000	0.0
249	0x0000000000000000	0.0
250	0x0000000000000000	0.0
251	0x0000000000000000	0.0
252	0x0000000000000000	0.0
253	0x0000000000000000	0.0
254	0x0000000000000000	0.0
255	0x0000000000000000	0.0
